{
  "layers" : [
    {
      "pad_r" : 1,
      "fused_relu" : 0,
      "fused_tanh" : 0,
      "debug_info" : "x.1",
      "pad_fill_mode" : 0,
      "pad_b" : 1,
      "pad_l" : 1,
      "top" : "x.1",
      "K" : 3,
      "blob_biases" : 1,
      "stride_x" : 2,
      "name" : "x.1",
      "has_batch_norm" : 0,
      "type" : "convolution",
      "n_groups" : 1,
      "pad_t" : 1,
      "stride_y" : 2,
      "has_biases" : 1,
      "C" : 64,
      "bottom" : "image",
      "weights" : {
        "W_U8" : 3,
        "per_ch_qscale" : 7,
        "per_ch_qbias" : 5
      },
      "Nx" : 3,
      "pad_mode" : 0,
      "pad_value" : 0,
      "Ny" : 3,
      "n_parallel" : 1
    },
    {
      "pad_r" : 1,
      "fused_relu" : 1,
      "fused_tanh" : 0,
      "debug_info" : "input.3",
      "pad_fill_mode" : 0,
      "pad_b" : 1,
      "pad_l" : 1,
      "top" : "input.5",
      "K" : 64,
      "blob_biases" : 9,
      "name" : "input.3",
      "has_batch_norm" : 0,
      "type" : "convolution",
      "n_groups" : 1,
      "pad_t" : 1,
      "has_biases" : 1,
      "C" : 64,
      "bottom" : "x.1",
      "weights" : {
        "W_U8" : 11,
        "per_ch_qscale" : 15,
        "per_ch_qbias" : 13
      },
      "Nx" : 3,
      "pad_mode" : 0,
      "pad_value" : 0,
      "Ny" : 3,
      "n_parallel" : 1
    },
    {
      "pad_r" : 1,
      "fused_relu" : 1,
      "fused_tanh" : 0,
      "debug_info" : "input.9",
      "pad_fill_mode" : 0,
      "pad_b" : 1,
      "pad_l" : 1,
      "top" : "input.11",
      "K" : 64,
      "blob_biases" : 17,
      "name" : "input.9",
      "has_batch_norm" : 0,
      "type" : "convolution",
      "n_groups" : 1,
      "pad_t" : 1,
      "has_biases" : 1,
      "C" : 32,
      "bottom" : "input.5",
      "weights" : {
        "W_U8" : 19,
        "per_ch_qscale" : 23,
        "per_ch_qbias" : 21
      },
      "Nx" : 3,
      "pad_mode" : 0,
      "pad_value" : 0,
      "Ny" : 3,
      "n_parallel" : 1
    },
    {
      "pad_r" : 0,
      "debug_info" : "input.13",
      "pad_fill_mode" : 0,
      "pad_b" : 0,
      "pad_l" : 0,
      "size_x" : 2,
      "top" : "input.13",
      "top_shape_style" : 2,
      "stride_x" : 2,
      "avg_or_max" : 1,
      "average_count_exclude_padding" : 1,
      "type" : "pool",
      "name" : "input.13",
      "pad_t" : 0,
      "stride_y" : 2,
      "bottom" : "input.11",
      "weights" : {

      },
      "pad_mode" : 0,
      "size_y" : 2,
      "pad_value" : 0
    },
    {
      "pad_r" : 1,
      "fused_relu" : 1,
      "fused_tanh" : 0,
      "debug_info" : "input.17",
      "pad_fill_mode" : 0,
      "pad_b" : 1,
      "pad_l" : 1,
      "top" : "input.19",
      "K" : 32,
      "blob_biases" : 25,
      "name" : "input.17",
      "has_batch_norm" : 0,
      "type" : "convolution",
      "n_groups" : 1,
      "pad_t" : 1,
      "has_biases" : 1,
      "C" : 32,
      "bottom" : "input.13",
      "weights" : {
        "W_U8" : 27,
        "per_ch_qscale" : 31,
        "per_ch_qbias" : 29
      },
      "Nx" : 3,
      "pad_mode" : 0,
      "pad_value" : 0,
      "Ny" : 3,
      "n_parallel" : 1
    },
    {
      "pad_r" : 0,
      "debug_info" : "input.21",
      "pad_fill_mode" : 0,
      "pad_b" : 0,
      "pad_l" : 0,
      "size_x" : 2,
      "top" : "input.21",
      "top_shape_style" : 2,
      "stride_x" : 2,
      "avg_or_max" : 1,
      "average_count_exclude_padding" : 1,
      "type" : "pool",
      "name" : "input.21",
      "pad_t" : 0,
      "stride_y" : 2,
      "bottom" : "input.19",
      "weights" : {

      },
      "pad_mode" : 0,
      "size_y" : 2,
      "pad_value" : 0
    },
    {
      "pad_r" : 1,
      "fused_relu" : 1,
      "fused_tanh" : 0,
      "debug_info" : "input.25",
      "pad_fill_mode" : 0,
      "pad_b" : 1,
      "pad_l" : 1,
      "top" : "input.27",
      "K" : 32,
      "blob_biases" : 33,
      "name" : "input.25",
      "has_batch_norm" : 0,
      "type" : "convolution",
      "n_groups" : 1,
      "pad_t" : 1,
      "has_biases" : 1,
      "C" : 32,
      "bottom" : "input.21",
      "weights" : {
        "W_U8" : 35,
        "per_ch_qscale" : 39,
        "per_ch_qbias" : 37
      },
      "Nx" : 3,
      "pad_mode" : 0,
      "pad_value" : 0,
      "Ny" : 3,
      "n_parallel" : 1
    },
    {
      "pad_r" : 0,
      "debug_info" : "input.29",
      "pad_fill_mode" : 0,
      "pad_b" : 0,
      "pad_l" : 0,
      "size_x" : 2,
      "top" : "input.29",
      "top_shape_style" : 2,
      "stride_x" : 2,
      "avg_or_max" : 1,
      "average_count_exclude_padding" : 1,
      "type" : "pool",
      "name" : "input.29",
      "pad_t" : 0,
      "stride_y" : 2,
      "bottom" : "input.27",
      "weights" : {

      },
      "pad_mode" : 0,
      "size_y" : 2,
      "pad_value" : 0
    },
    {
      "pad_r" : 1,
      "fused_relu" : 1,
      "fused_tanh" : 0,
      "debug_info" : "input.33",
      "pad_fill_mode" : 0,
      "pad_b" : 1,
      "pad_l" : 1,
      "top" : "input.35",
      "K" : 32,
      "blob_biases" : 41,
      "name" : "input.33",
      "has_batch_norm" : 0,
      "type" : "convolution",
      "n_groups" : 1,
      "pad_t" : 1,
      "has_biases" : 1,
      "C" : 32,
      "bottom" : "input.29",
      "weights" : {
        "W_U8" : 43,
        "per_ch_qscale" : 47,
        "per_ch_qbias" : 45
      },
      "Nx" : 3,
      "pad_mode" : 0,
      "pad_value" : 0,
      "Ny" : 3,
      "n_parallel" : 1
    },
    {
      "pad_r" : 0,
      "debug_info" : "input.37",
      "pad_fill_mode" : 0,
      "pad_b" : 0,
      "pad_l" : 0,
      "size_x" : 2,
      "top" : "input.37",
      "top_shape_style" : 2,
      "stride_x" : 2,
      "avg_or_max" : 1,
      "average_count_exclude_padding" : 1,
      "type" : "pool",
      "name" : "input.37",
      "pad_t" : 0,
      "stride_y" : 2,
      "bottom" : "input.35",
      "weights" : {

      },
      "pad_mode" : 0,
      "size_y" : 2,
      "pad_value" : 0
    },
    {
      "pad_r" : 1,
      "fused_relu" : 1,
      "fused_tanh" : 0,
      "debug_info" : "input.41",
      "pad_fill_mode" : 0,
      "pad_b" : 1,
      "pad_l" : 1,
      "top" : "input.43",
      "K" : 32,
      "blob_biases" : 49,
      "name" : "input.41",
      "has_batch_norm" : 0,
      "type" : "convolution",
      "n_groups" : 1,
      "pad_t" : 1,
      "has_biases" : 1,
      "C" : 32,
      "bottom" : "input.37",
      "weights" : {
        "W_U8" : 51,
        "per_ch_qscale" : 55,
        "per_ch_qbias" : 53
      },
      "Nx" : 3,
      "pad_mode" : 0,
      "pad_value" : 0,
      "Ny" : 3,
      "n_parallel" : 1
    },
    {
      "pad_r" : 0,
      "debug_info" : "input.45",
      "pad_fill_mode" : 0,
      "pad_b" : 0,
      "pad_l" : 0,
      "size_x" : 2,
      "top" : "input.45",
      "top_shape_style" : 2,
      "stride_x" : 2,
      "avg_or_max" : 1,
      "average_count_exclude_padding" : 1,
      "type" : "pool",
      "name" : "input.45",
      "pad_t" : 0,
      "stride_y" : 2,
      "bottom" : "input.43",
      "weights" : {

      },
      "pad_mode" : 0,
      "size_y" : 2,
      "pad_value" : 0
    },
    {
      "pad_r" : 1,
      "fused_relu" : 1,
      "fused_tanh" : 0,
      "debug_info" : "input.49",
      "pad_fill_mode" : 0,
      "pad_b" : 1,
      "pad_l" : 1,
      "top" : "input.51",
      "K" : 32,
      "blob_biases" : 57,
      "name" : "input.49",
      "has_batch_norm" : 0,
      "type" : "convolution",
      "n_groups" : 1,
      "pad_t" : 1,
      "has_biases" : 1,
      "C" : 32,
      "bottom" : "input.45",
      "weights" : {
        "W_U8" : 59,
        "per_ch_qscale" : 63,
        "per_ch_qbias" : 61
      },
      "Nx" : 3,
      "pad_mode" : 0,
      "pad_value" : 0,
      "Ny" : 3,
      "n_parallel" : 1
    },
    {
      "pad_r" : 2,
      "fused_relu" : 1,
      "fused_tanh" : 0,
      "debug_info" : "input.55",
      "pad_fill_mode" : 0,
      "pad_b" : 2,
      "pad_l" : 2,
      "top" : "hx7.1",
      "K" : 32,
      "blob_biases" : 65,
      "name" : "input.55",
      "has_batch_norm" : 0,
      "type" : "convolution",
      "n_groups" : 1,
      "pad_t" : 2,
      "has_biases" : 1,
      "C" : 32,
      "bottom" : "input.51",
      "weights" : {
        "W_U8" : 67,
        "per_ch_qscale" : 71,
        "per_ch_qbias" : 69
      },
      "Nx" : 3,
      "pad_mode" : 0,
      "dilation_x" : 2,
      "pad_value" : 0,
      "Ny" : 3,
      "n_parallel" : 1,
      "dilation_y" : 2
    },
    {
      "weights" : {

      },
      "debug_info" : "input.57",
      "top" : "input.57",
      "type" : "concat",
      "name" : "input.57",
      "bottom" : "hx7.1,input.51"
    },
    {
      "pad_r" : 1,
      "fused_relu" : 1,
      "fused_tanh" : 0,
      "debug_info" : "input.61",
      "pad_fill_mode" : 0,
      "pad_b" : 1,
      "pad_l" : 1,
      "top" : "input.63",
      "K" : 64,
      "blob_biases" : 73,
      "name" : "input.61",
      "has_batch_norm" : 0,
      "type" : "convolution",
      "n_groups" : 1,
      "pad_t" : 1,
      "has_biases" : 1,
      "C" : 32,
      "bottom" : "input.57",
      "weights" : {
        "W_U8" : 75,
        "per_ch_qscale" : 79,
        "per_ch_qbias" : 77
      },
      "Nx" : 3,
      "pad_mode" : 0,
      "pad_value" : 0,
      "Ny" : 3,
      "n_parallel" : 1
    },
    {
      "top" : "hx6dup.1",
      "use_fractional_scale_factors" : false,
      "weights" : {

      },
      "fractional_scaling_factor_y" : 1,
      "type" : "upsample",
      "scaling_factor_x" : 2,
      "mode" : 1,
      "align_corners" : 0,
      "bottom" : "input.63",
      "debug_info" : "hx6dup.1",
      "fractional_scaling_factor_x" : 1,
      "is_legacy_mode" : 0,
      "name" : "hx6dup.1",
      "scaling_factor_y" : 2
    },
    {
      "weights" : {

      },
      "debug_info" : "input.65",
      "top" : "input.65",
      "type" : "concat",
      "name" : "input.65",
      "bottom" : "hx6dup.1,input.43"
    },
    {
      "pad_r" : 1,
      "fused_relu" : 1,
      "fused_tanh" : 0,
      "debug_info" : "input.69",
      "pad_fill_mode" : 0,
      "pad_b" : 1,
      "pad_l" : 1,
      "top" : "input.71",
      "K" : 64,
      "blob_biases" : 81,
      "name" : "input.69",
      "has_batch_norm" : 0,
      "type" : "convolution",
      "n_groups" : 1,
      "pad_t" : 1,
      "has_biases" : 1,
      "C" : 32,
      "bottom" : "input.65",
      "weights" : {
        "W_U8" : 83,
        "per_ch_qscale" : 87,
        "per_ch_qbias" : 85
      },
      "Nx" : 3,
      "pad_mode" : 0,
      "pad_value" : 0,
      "Ny" : 3,
      "n_parallel" : 1
    },
    {
      "top" : "hx5dup.1",
      "use_fractional_scale_factors" : false,
      "weights" : {

      },
      "fractional_scaling_factor_y" : 1,
      "type" : "upsample",
      "scaling_factor_x" : 2,
      "mode" : 1,
      "align_corners" : 0,
      "bottom" : "input.71",
      "debug_info" : "hx5dup.1",
      "fractional_scaling_factor_x" : 1,
      "is_legacy_mode" : 0,
      "name" : "hx5dup.1",
      "scaling_factor_y" : 2
    },
    {
      "weights" : {

      },
      "debug_info" : "input.73",
      "top" : "input.73",
      "type" : "concat",
      "name" : "input.73",
      "bottom" : "hx5dup.1,input.35"
    },
    {
      "pad_r" : 1,
      "fused_relu" : 1,
      "fused_tanh" : 0,
      "debug_info" : "input.77",
      "pad_fill_mode" : 0,
      "pad_b" : 1,
      "pad_l" : 1,
      "top" : "input.79",
      "K" : 64,
      "blob_biases" : 89,
      "name" : "input.77",
      "has_batch_norm" : 0,
      "type" : "convolution",
      "n_groups" : 1,
      "pad_t" : 1,
      "has_biases" : 1,
      "C" : 32,
      "bottom" : "input.73",
      "weights" : {
        "W_U8" : 91,
        "per_ch_qscale" : 95,
        "per_ch_qbias" : 93
      },
      "Nx" : 3,
      "pad_mode" : 0,
      "pad_value" : 0,
      "Ny" : 3,
      "n_parallel" : 1
    },
    {
      "top" : "hx4dup.1",
      "use_fractional_scale_factors" : false,
      "weights" : {

      },
      "fractional_scaling_factor_y" : 1,
      "type" : "upsample",
      "scaling_factor_x" : 2,
      "mode" : 1,
      "align_corners" : 0,
      "bottom" : "input.79",
      "debug_info" : "hx4dup.1",
      "fractional_scaling_factor_x" : 1,
      "is_legacy_mode" : 0,
      "name" : "hx4dup.1",
      "scaling_factor_y" : 2
    },
    {
      "weights" : {

      },
      "debug_info" : "input.81",
      "top" : "input.81",
      "type" : "concat",
      "name" : "input.81",
      "bottom" : "hx4dup.1,input.27"
    },
    {
      "pad_r" : 1,
      "fused_relu" : 1,
      "fused_tanh" : 0,
      "debug_info" : "input.85",
      "pad_fill_mode" : 0,
      "pad_b" : 1,
      "pad_l" : 1,
      "top" : "input.87",
      "K" : 64,
      "blob_biases" : 97,
      "name" : "input.85",
      "has_batch_norm" : 0,
      "type" : "convolution",
      "n_groups" : 1,
      "pad_t" : 1,
      "has_biases" : 1,
      "C" : 32,
      "bottom" : "input.81",
      "weights" : {
        "W_U8" : 99,
        "per_ch_qscale" : 103,
        "per_ch_qbias" : 101
      },
      "Nx" : 3,
      "pad_mode" : 0,
      "pad_value" : 0,
      "Ny" : 3,
      "n_parallel" : 1
    },
    {
      "top" : "hx3dup.1",
      "use_fractional_scale_factors" : false,
      "weights" : {

      },
      "fractional_scaling_factor_y" : 1,
      "type" : "upsample",
      "scaling_factor_x" : 2,
      "mode" : 1,
      "align_corners" : 0,
      "bottom" : "input.87",
      "debug_info" : "hx3dup.1",
      "fractional_scaling_factor_x" : 1,
      "is_legacy_mode" : 0,
      "name" : "hx3dup.1",
      "scaling_factor_y" : 2
    },
    {
      "weights" : {

      },
      "debug_info" : "input.89",
      "top" : "input.89",
      "type" : "concat",
      "name" : "input.89",
      "bottom" : "hx3dup.1,input.19"
    },
    {
      "pad_r" : 1,
      "fused_relu" : 1,
      "fused_tanh" : 0,
      "debug_info" : "input.93",
      "pad_fill_mode" : 0,
      "pad_b" : 1,
      "pad_l" : 1,
      "top" : "input.95",
      "K" : 64,
      "blob_biases" : 105,
      "name" : "input.93",
      "has_batch_norm" : 0,
      "type" : "convolution",
      "n_groups" : 1,
      "pad_t" : 1,
      "has_biases" : 1,
      "C" : 32,
      "bottom" : "input.89",
      "weights" : {
        "W_U8" : 107,
        "per_ch_qscale" : 111,
        "per_ch_qbias" : 109
      },
      "Nx" : 3,
      "pad_mode" : 0,
      "pad_value" : 0,
      "Ny" : 3,
      "n_parallel" : 1
    },
    {
      "top" : "hx2dup.1",
      "use_fractional_scale_factors" : false,
      "weights" : {

      },
      "fractional_scaling_factor_y" : 1,
      "type" : "upsample",
      "scaling_factor_x" : 2,
      "mode" : 1,
      "align_corners" : 0,
      "bottom" : "input.95",
      "debug_info" : "hx2dup.1",
      "fractional_scaling_factor_x" : 1,
      "is_legacy_mode" : 0,
      "name" : "hx2dup.1",
      "scaling_factor_y" : 2
    },
    {
      "weights" : {

      },
      "debug_info" : "input.97",
      "top" : "input.97",
      "type" : "concat",
      "name" : "input.97",
      "bottom" : "hx2dup.1,input.11"
    },
    {
      "pad_r" : 1,
      "fused_relu" : 1,
      "fused_tanh" : 0,
      "debug_info" : "input.101",
      "pad_fill_mode" : 0,
      "pad_b" : 1,
      "pad_l" : 1,
      "top" : "hx1d.1",
      "K" : 64,
      "blob_biases" : 113,
      "name" : "input.101",
      "has_batch_norm" : 0,
      "type" : "convolution",
      "n_groups" : 1,
      "pad_t" : 1,
      "has_biases" : 1,
      "C" : 64,
      "bottom" : "input.97",
      "weights" : {
        "W_U8" : 115,
        "per_ch_qscale" : 119,
        "per_ch_qbias" : 117
      },
      "Nx" : 3,
      "pad_mode" : 0,
      "pad_value" : 0,
      "Ny" : 3,
      "n_parallel" : 1
    },
    {
      "bottom" : "hx1d.1,input.5",
      "alpha" : 1,
      "operation" : 0,
      "weights" : {

      },
      "fused_relu" : 0,
      "debug_info" : "input.103",
      "top" : "input.103",
      "type" : "elementwise",
      "name" : "input.103",
      "beta" : 0
    },
    {
      "pad_r" : 0,
      "debug_info" : "input.105",
      "pad_fill_mode" : 0,
      "pad_b" : 0,
      "pad_l" : 0,
      "size_x" : 2,
      "top" : "input.105",
      "top_shape_style" : 2,
      "stride_x" : 2,
      "avg_or_max" : 1,
      "average_count_exclude_padding" : 1,
      "type" : "pool",
      "name" : "input.105",
      "pad_t" : 0,
      "stride_y" : 2,
      "bottom" : "input.103",
      "weights" : {

      },
      "pad_mode" : 0,
      "size_y" : 2,
      "pad_value" : 0
    },
    {
      "pad_r" : 1,
      "fused_relu" : 1,
      "fused_tanh" : 0,
      "debug_info" : "input.109",
      "pad_fill_mode" : 0,
      "pad_b" : 1,
      "pad_l" : 1,
      "top" : "input.111",
      "K" : 64,
      "blob_biases" : 121,
      "name" : "input.109",
      "has_batch_norm" : 0,
      "type" : "convolution",
      "n_groups" : 1,
      "pad_t" : 1,
      "has_biases" : 1,
      "C" : 128,
      "bottom" : "input.105",
      "weights" : {
        "W_U8" : 123,
        "per_ch_qscale" : 127,
        "per_ch_qbias" : 125
      },
      "Nx" : 3,
      "pad_mode" : 0,
      "pad_value" : 0,
      "Ny" : 3,
      "n_parallel" : 1
    },
    {
      "pad_r" : 1,
      "fused_relu" : 1,
      "fused_tanh" : 0,
      "debug_info" : "input.115",
      "pad_fill_mode" : 0,
      "pad_b" : 1,
      "pad_l" : 1,
      "top" : "input.117",
      "K" : 128,
      "blob_biases" : 129,
      "name" : "input.115",
      "has_batch_norm" : 0,
      "type" : "convolution",
      "n_groups" : 1,
      "pad_t" : 1,
      "has_biases" : 1,
      "C" : 32,
      "bottom" : "input.111",
      "weights" : {
        "W_U8" : 131,
        "per_ch_qscale" : 135,
        "per_ch_qbias" : 133
      },
      "Nx" : 3,
      "pad_mode" : 0,
      "pad_value" : 0,
      "Ny" : 3,
      "n_parallel" : 1
    },
    {
      "pad_r" : 0,
      "debug_info" : "input.119",
      "pad_fill_mode" : 0,
      "pad_b" : 0,
      "pad_l" : 0,
      "size_x" : 2,
      "top" : "input.119",
      "top_shape_style" : 2,
      "stride_x" : 2,
      "avg_or_max" : 1,
      "average_count_exclude_padding" : 1,
      "type" : "pool",
      "name" : "input.119",
      "pad_t" : 0,
      "stride_y" : 2,
      "bottom" : "input.117",
      "weights" : {

      },
      "pad_mode" : 0,
      "size_y" : 2,
      "pad_value" : 0
    },
    {
      "pad_r" : 1,
      "fused_relu" : 1,
      "fused_tanh" : 0,
      "debug_info" : "input.123",
      "pad_fill_mode" : 0,
      "pad_b" : 1,
      "pad_l" : 1,
      "top" : "input.125",
      "K" : 32,
      "blob_biases" : 137,
      "name" : "input.123",
      "has_batch_norm" : 0,
      "type" : "convolution",
      "n_groups" : 1,
      "pad_t" : 1,
      "has_biases" : 1,
      "C" : 32,
      "bottom" : "input.119",
      "weights" : {
        "W_U8" : 139,
        "per_ch_qscale" : 143,
        "per_ch_qbias" : 141
      },
      "Nx" : 3,
      "pad_mode" : 0,
      "pad_value" : 0,
      "Ny" : 3,
      "n_parallel" : 1
    },
    {
      "pad_r" : 0,
      "debug_info" : "input.127",
      "pad_fill_mode" : 0,
      "pad_b" : 0,
      "pad_l" : 0,
      "size_x" : 2,
      "top" : "input.127",
      "top_shape_style" : 2,
      "stride_x" : 2,
      "avg_or_max" : 1,
      "average_count_exclude_padding" : 1,
      "type" : "pool",
      "name" : "input.127",
      "pad_t" : 0,
      "stride_y" : 2,
      "bottom" : "input.125",
      "weights" : {

      },
      "pad_mode" : 0,
      "size_y" : 2,
      "pad_value" : 0
    },
    {
      "pad_r" : 1,
      "fused_relu" : 1,
      "fused_tanh" : 0,
      "debug_info" : "input.131",
      "pad_fill_mode" : 0,
      "pad_b" : 1,
      "pad_l" : 1,
      "top" : "input.133",
      "K" : 32,
      "blob_biases" : 145,
      "name" : "input.131",
      "has_batch_norm" : 0,
      "type" : "convolution",
      "n_groups" : 1,
      "pad_t" : 1,
      "has_biases" : 1,
      "C" : 32,
      "bottom" : "input.127",
      "weights" : {
        "W_U8" : 147,
        "per_ch_qscale" : 151,
        "per_ch_qbias" : 149
      },
      "Nx" : 3,
      "pad_mode" : 0,
      "pad_value" : 0,
      "Ny" : 3,
      "n_parallel" : 1
    },
    {
      "pad_r" : 0,
      "debug_info" : "input.135",
      "pad_fill_mode" : 0,
      "pad_b" : 0,
      "pad_l" : 0,
      "size_x" : 2,
      "top" : "input.135",
      "top_shape_style" : 2,
      "stride_x" : 2,
      "avg_or_max" : 1,
      "average_count_exclude_padding" : 1,
      "type" : "pool",
      "name" : "input.135",
      "pad_t" : 0,
      "stride_y" : 2,
      "bottom" : "input.133",
      "weights" : {

      },
      "pad_mode" : 0,
      "size_y" : 2,
      "pad_value" : 0
    },
    {
      "pad_r" : 1,
      "fused_relu" : 1,
      "fused_tanh" : 0,
      "debug_info" : "input.139",
      "pad_fill_mode" : 0,
      "pad_b" : 1,
      "pad_l" : 1,
      "top" : "input.141",
      "K" : 32,
      "blob_biases" : 153,
      "name" : "input.139",
      "has_batch_norm" : 0,
      "type" : "convolution",
      "n_groups" : 1,
      "pad_t" : 1,
      "has_biases" : 1,
      "C" : 32,
      "bottom" : "input.135",
      "weights" : {
        "W_U8" : 155,
        "per_ch_qscale" : 159,
        "per_ch_qbias" : 157
      },
      "Nx" : 3,
      "pad_mode" : 0,
      "pad_value" : 0,
      "Ny" : 3,
      "n_parallel" : 1
    },
    {
      "pad_r" : 0,
      "debug_info" : "input.143",
      "pad_fill_mode" : 0,
      "pad_b" : 0,
      "pad_l" : 0,
      "size_x" : 2,
      "top" : "input.143",
      "top_shape_style" : 2,
      "stride_x" : 2,
      "avg_or_max" : 1,
      "average_count_exclude_padding" : 1,
      "type" : "pool",
      "name" : "input.143",
      "pad_t" : 0,
      "stride_y" : 2,
      "bottom" : "input.141",
      "weights" : {

      },
      "pad_mode" : 0,
      "size_y" : 2,
      "pad_value" : 0
    },
    {
      "pad_r" : 1,
      "fused_relu" : 1,
      "fused_tanh" : 0,
      "debug_info" : "input.147",
      "pad_fill_mode" : 0,
      "pad_b" : 1,
      "pad_l" : 1,
      "top" : "input.149",
      "K" : 32,
      "blob_biases" : 161,
      "name" : "input.147",
      "has_batch_norm" : 0,
      "type" : "convolution",
      "n_groups" : 1,
      "pad_t" : 1,
      "has_biases" : 1,
      "C" : 32,
      "bottom" : "input.143",
      "weights" : {
        "W_U8" : 163,
        "per_ch_qscale" : 167,
        "per_ch_qbias" : 165
      },
      "Nx" : 3,
      "pad_mode" : 0,
      "pad_value" : 0,
      "Ny" : 3,
      "n_parallel" : 1
    },
    {
      "pad_r" : 2,
      "fused_relu" : 1,
      "fused_tanh" : 0,
      "debug_info" : "input.153",
      "pad_fill_mode" : 0,
      "pad_b" : 2,
      "pad_l" : 2,
      "top" : "hx6.1",
      "K" : 32,
      "blob_biases" : 169,
      "name" : "input.153",
      "has_batch_norm" : 0,
      "type" : "convolution",
      "n_groups" : 1,
      "pad_t" : 2,
      "has_biases" : 1,
      "C" : 32,
      "bottom" : "input.149",
      "weights" : {
        "W_U8" : 171,
        "per_ch_qscale" : 175,
        "per_ch_qbias" : 173
      },
      "Nx" : 3,
      "pad_mode" : 0,
      "dilation_x" : 2,
      "pad_value" : 0,
      "Ny" : 3,
      "n_parallel" : 1,
      "dilation_y" : 2
    },
    {
      "weights" : {

      },
      "debug_info" : "input.155",
      "top" : "input.155",
      "type" : "concat",
      "name" : "input.155",
      "bottom" : "hx6.1,input.149"
    },
    {
      "pad_r" : 1,
      "fused_relu" : 1,
      "fused_tanh" : 0,
      "debug_info" : "input.159",
      "pad_fill_mode" : 0,
      "pad_b" : 1,
      "pad_l" : 1,
      "top" : "input.161",
      "K" : 64,
      "blob_biases" : 177,
      "name" : "input.159",
      "has_batch_norm" : 0,
      "type" : "convolution",
      "n_groups" : 1,
      "pad_t" : 1,
      "has_biases" : 1,
      "C" : 32,
      "bottom" : "input.155",
      "weights" : {
        "W_U8" : 179,
        "per_ch_qscale" : 183,
        "per_ch_qbias" : 181
      },
      "Nx" : 3,
      "pad_mode" : 0,
      "pad_value" : 0,
      "Ny" : 3,
      "n_parallel" : 1
    },
    {
      "top" : "hx5dup.3",
      "use_fractional_scale_factors" : false,
      "weights" : {

      },
      "fractional_scaling_factor_y" : 1,
      "type" : "upsample",
      "scaling_factor_x" : 2,
      "mode" : 1,
      "align_corners" : 0,
      "bottom" : "input.161",
      "debug_info" : "hx5dup.3",
      "fractional_scaling_factor_x" : 1,
      "is_legacy_mode" : 0,
      "name" : "hx5dup.3",
      "scaling_factor_y" : 2
    },
    {
      "weights" : {

      },
      "debug_info" : "input.163",
      "top" : "input.163",
      "type" : "concat",
      "name" : "input.163",
      "bottom" : "hx5dup.3,input.141"
    },
    {
      "pad_r" : 1,
      "fused_relu" : 1,
      "fused_tanh" : 0,
      "debug_info" : "input.167",
      "pad_fill_mode" : 0,
      "pad_b" : 1,
      "pad_l" : 1,
      "top" : "input.169",
      "K" : 64,
      "blob_biases" : 185,
      "name" : "input.167",
      "has_batch_norm" : 0,
      "type" : "convolution",
      "n_groups" : 1,
      "pad_t" : 1,
      "has_biases" : 1,
      "C" : 32,
      "bottom" : "input.163",
      "weights" : {
        "W_U8" : 187,
        "per_ch_qscale" : 191,
        "per_ch_qbias" : 189
      },
      "Nx" : 3,
      "pad_mode" : 0,
      "pad_value" : 0,
      "Ny" : 3,
      "n_parallel" : 1
    },
    {
      "top" : "hx4dup.3",
      "use_fractional_scale_factors" : false,
      "weights" : {

      },
      "fractional_scaling_factor_y" : 1,
      "type" : "upsample",
      "scaling_factor_x" : 2,
      "mode" : 1,
      "align_corners" : 0,
      "bottom" : "input.169",
      "debug_info" : "hx4dup.3",
      "fractional_scaling_factor_x" : 1,
      "is_legacy_mode" : 0,
      "name" : "hx4dup.3",
      "scaling_factor_y" : 2
    },
    {
      "weights" : {

      },
      "debug_info" : "input.171",
      "top" : "input.171",
      "type" : "concat",
      "name" : "input.171",
      "bottom" : "hx4dup.3,input.133"
    },
    {
      "pad_r" : 1,
      "fused_relu" : 1,
      "fused_tanh" : 0,
      "debug_info" : "input.175",
      "pad_fill_mode" : 0,
      "pad_b" : 1,
      "pad_l" : 1,
      "top" : "input.177",
      "K" : 64,
      "blob_biases" : 193,
      "name" : "input.175",
      "has_batch_norm" : 0,
      "type" : "convolution",
      "n_groups" : 1,
      "pad_t" : 1,
      "has_biases" : 1,
      "C" : 32,
      "bottom" : "input.171",
      "weights" : {
        "W_U8" : 195,
        "per_ch_qscale" : 199,
        "per_ch_qbias" : 197
      },
      "Nx" : 3,
      "pad_mode" : 0,
      "pad_value" : 0,
      "Ny" : 3,
      "n_parallel" : 1
    },
    {
      "top" : "hx3dup.3",
      "use_fractional_scale_factors" : false,
      "weights" : {

      },
      "fractional_scaling_factor_y" : 1,
      "type" : "upsample",
      "scaling_factor_x" : 2,
      "mode" : 1,
      "align_corners" : 0,
      "bottom" : "input.177",
      "debug_info" : "hx3dup.3",
      "fractional_scaling_factor_x" : 1,
      "is_legacy_mode" : 0,
      "name" : "hx3dup.3",
      "scaling_factor_y" : 2
    },
    {
      "weights" : {

      },
      "debug_info" : "input.179",
      "top" : "input.179",
      "type" : "concat",
      "name" : "input.179",
      "bottom" : "hx3dup.3,input.125"
    },
    {
      "pad_r" : 1,
      "fused_relu" : 1,
      "fused_tanh" : 0,
      "debug_info" : "input.183",
      "pad_fill_mode" : 0,
      "pad_b" : 1,
      "pad_l" : 1,
      "top" : "input.185",
      "K" : 64,
      "blob_biases" : 201,
      "name" : "input.183",
      "has_batch_norm" : 0,
      "type" : "convolution",
      "n_groups" : 1,
      "pad_t" : 1,
      "has_biases" : 1,
      "C" : 32,
      "bottom" : "input.179",
      "weights" : {
        "W_U8" : 203,
        "per_ch_qscale" : 207,
        "per_ch_qbias" : 205
      },
      "Nx" : 3,
      "pad_mode" : 0,
      "pad_value" : 0,
      "Ny" : 3,
      "n_parallel" : 1
    },
    {
      "top" : "hx2dup.3",
      "use_fractional_scale_factors" : false,
      "weights" : {

      },
      "fractional_scaling_factor_y" : 1,
      "type" : "upsample",
      "scaling_factor_x" : 2,
      "mode" : 1,
      "align_corners" : 0,
      "bottom" : "input.185",
      "debug_info" : "hx2dup.3",
      "fractional_scaling_factor_x" : 1,
      "is_legacy_mode" : 0,
      "name" : "hx2dup.3",
      "scaling_factor_y" : 2
    },
    {
      "weights" : {

      },
      "debug_info" : "input.187",
      "top" : "input.187",
      "type" : "concat",
      "name" : "input.187",
      "bottom" : "hx2dup.3,input.117"
    },
    {
      "pad_r" : 1,
      "fused_relu" : 1,
      "fused_tanh" : 0,
      "debug_info" : "input.191",
      "pad_fill_mode" : 0,
      "pad_b" : 1,
      "pad_l" : 1,
      "top" : "hx1d.3",
      "K" : 64,
      "blob_biases" : 209,
      "name" : "input.191",
      "has_batch_norm" : 0,
      "type" : "convolution",
      "n_groups" : 1,
      "pad_t" : 1,
      "has_biases" : 1,
      "C" : 128,
      "bottom" : "input.187",
      "weights" : {
        "W_U8" : 211,
        "per_ch_qscale" : 215,
        "per_ch_qbias" : 213
      },
      "Nx" : 3,
      "pad_mode" : 0,
      "pad_value" : 0,
      "Ny" : 3,
      "n_parallel" : 1
    },
    {
      "bottom" : "hx1d.3,input.111",
      "alpha" : 1,
      "operation" : 0,
      "weights" : {

      },
      "fused_relu" : 0,
      "debug_info" : "input.193",
      "top" : "input.193",
      "type" : "elementwise",
      "name" : "input.193",
      "beta" : 0
    },
    {
      "pad_r" : 0,
      "debug_info" : "input.195",
      "pad_fill_mode" : 0,
      "pad_b" : 0,
      "pad_l" : 0,
      "size_x" : 2,
      "top" : "input.195",
      "top_shape_style" : 2,
      "stride_x" : 2,
      "avg_or_max" : 1,
      "average_count_exclude_padding" : 1,
      "type" : "pool",
      "name" : "input.195",
      "pad_t" : 0,
      "stride_y" : 2,
      "bottom" : "input.193",
      "weights" : {

      },
      "pad_mode" : 0,
      "size_y" : 2,
      "pad_value" : 0
    },
    {
      "pad_r" : 1,
      "fused_relu" : 1,
      "fused_tanh" : 0,
      "debug_info" : "input.199",
      "pad_fill_mode" : 0,
      "pad_b" : 1,
      "pad_l" : 1,
      "top" : "input.201",
      "K" : 128,
      "blob_biases" : 217,
      "name" : "input.199",
      "has_batch_norm" : 0,
      "type" : "convolution",
      "n_groups" : 1,
      "pad_t" : 1,
      "has_biases" : 1,
      "C" : 256,
      "bottom" : "input.195",
      "weights" : {
        "W_U8" : 219,
        "per_ch_qscale" : 223,
        "per_ch_qbias" : 221
      },
      "Nx" : 3,
      "pad_mode" : 0,
      "pad_value" : 0,
      "Ny" : 3,
      "n_parallel" : 1
    },
    {
      "pad_r" : 1,
      "fused_relu" : 1,
      "fused_tanh" : 0,
      "debug_info" : "input.205",
      "pad_fill_mode" : 0,
      "pad_b" : 1,
      "pad_l" : 1,
      "top" : "input.207",
      "K" : 256,
      "blob_biases" : 225,
      "name" : "input.205",
      "has_batch_norm" : 0,
      "type" : "convolution",
      "n_groups" : 1,
      "pad_t" : 1,
      "has_biases" : 1,
      "C" : 64,
      "bottom" : "input.201",
      "weights" : {
        "W_U8" : 227,
        "per_ch_qscale" : 231,
        "per_ch_qbias" : 229
      },
      "Nx" : 3,
      "pad_mode" : 0,
      "pad_value" : 0,
      "Ny" : 3,
      "n_parallel" : 1
    },
    {
      "pad_r" : 0,
      "debug_info" : "input.209",
      "pad_fill_mode" : 0,
      "pad_b" : 0,
      "pad_l" : 0,
      "size_x" : 2,
      "top" : "input.209",
      "top_shape_style" : 2,
      "stride_x" : 2,
      "avg_or_max" : 1,
      "average_count_exclude_padding" : 1,
      "type" : "pool",
      "name" : "input.209",
      "pad_t" : 0,
      "stride_y" : 2,
      "bottom" : "input.207",
      "weights" : {

      },
      "pad_mode" : 0,
      "size_y" : 2,
      "pad_value" : 0
    },
    {
      "pad_r" : 1,
      "fused_relu" : 1,
      "fused_tanh" : 0,
      "debug_info" : "input.213",
      "pad_fill_mode" : 0,
      "pad_b" : 1,
      "pad_l" : 1,
      "top" : "input.215",
      "K" : 64,
      "blob_biases" : 233,
      "name" : "input.213",
      "has_batch_norm" : 0,
      "type" : "convolution",
      "n_groups" : 1,
      "pad_t" : 1,
      "has_biases" : 1,
      "C" : 64,
      "bottom" : "input.209",
      "weights" : {
        "W_U8" : 235,
        "per_ch_qscale" : 239,
        "per_ch_qbias" : 237
      },
      "Nx" : 3,
      "pad_mode" : 0,
      "pad_value" : 0,
      "Ny" : 3,
      "n_parallel" : 1
    },
    {
      "pad_r" : 0,
      "debug_info" : "input.217",
      "pad_fill_mode" : 0,
      "pad_b" : 0,
      "pad_l" : 0,
      "size_x" : 2,
      "top" : "input.217",
      "top_shape_style" : 2,
      "stride_x" : 2,
      "avg_or_max" : 1,
      "average_count_exclude_padding" : 1,
      "type" : "pool",
      "name" : "input.217",
      "pad_t" : 0,
      "stride_y" : 2,
      "bottom" : "input.215",
      "weights" : {

      },
      "pad_mode" : 0,
      "size_y" : 2,
      "pad_value" : 0
    },
    {
      "pad_r" : 1,
      "fused_relu" : 1,
      "fused_tanh" : 0,
      "debug_info" : "input.221",
      "pad_fill_mode" : 0,
      "pad_b" : 1,
      "pad_l" : 1,
      "top" : "input.223",
      "K" : 64,
      "blob_biases" : 241,
      "name" : "input.221",
      "has_batch_norm" : 0,
      "type" : "convolution",
      "n_groups" : 1,
      "pad_t" : 1,
      "has_biases" : 1,
      "C" : 64,
      "bottom" : "input.217",
      "weights" : {
        "W_U8" : 243,
        "per_ch_qscale" : 247,
        "per_ch_qbias" : 245
      },
      "Nx" : 3,
      "pad_mode" : 0,
      "pad_value" : 0,
      "Ny" : 3,
      "n_parallel" : 1
    },
    {
      "pad_r" : 0,
      "debug_info" : "input.225",
      "pad_fill_mode" : 0,
      "pad_b" : 0,
      "pad_l" : 0,
      "size_x" : 2,
      "top" : "input.225",
      "top_shape_style" : 2,
      "stride_x" : 2,
      "avg_or_max" : 1,
      "average_count_exclude_padding" : 1,
      "type" : "pool",
      "name" : "input.225",
      "pad_t" : 0,
      "stride_y" : 2,
      "bottom" : "input.223",
      "weights" : {

      },
      "pad_mode" : 0,
      "size_y" : 2,
      "pad_value" : 0
    },
    {
      "pad_r" : 1,
      "fused_relu" : 1,
      "fused_tanh" : 0,
      "debug_info" : "input.229",
      "pad_fill_mode" : 0,
      "pad_b" : 1,
      "pad_l" : 1,
      "top" : "input.231",
      "K" : 64,
      "blob_biases" : 249,
      "name" : "input.229",
      "has_batch_norm" : 0,
      "type" : "convolution",
      "n_groups" : 1,
      "pad_t" : 1,
      "has_biases" : 1,
      "C" : 64,
      "bottom" : "input.225",
      "weights" : {
        "W_U8" : 251,
        "per_ch_qscale" : 255,
        "per_ch_qbias" : 253
      },
      "Nx" : 3,
      "pad_mode" : 0,
      "pad_value" : 0,
      "Ny" : 3,
      "n_parallel" : 1
    },
    {
      "pad_r" : 2,
      "fused_relu" : 1,
      "fused_tanh" : 0,
      "debug_info" : "input.235",
      "pad_fill_mode" : 0,
      "pad_b" : 2,
      "pad_l" : 2,
      "top" : "hx5.1",
      "K" : 64,
      "blob_biases" : 257,
      "name" : "input.235",
      "has_batch_norm" : 0,
      "type" : "convolution",
      "n_groups" : 1,
      "pad_t" : 2,
      "has_biases" : 1,
      "C" : 64,
      "bottom" : "input.231",
      "weights" : {
        "W_U8" : 259,
        "per_ch_qscale" : 263,
        "per_ch_qbias" : 261
      },
      "Nx" : 3,
      "pad_mode" : 0,
      "dilation_x" : 2,
      "pad_value" : 0,
      "Ny" : 3,
      "n_parallel" : 1,
      "dilation_y" : 2
    },
    {
      "weights" : {

      },
      "debug_info" : "input.237",
      "top" : "input.237",
      "type" : "concat",
      "name" : "input.237",
      "bottom" : "hx5.1,input.231"
    },
    {
      "pad_r" : 1,
      "fused_relu" : 1,
      "fused_tanh" : 0,
      "debug_info" : "input.241",
      "pad_fill_mode" : 0,
      "pad_b" : 1,
      "pad_l" : 1,
      "top" : "input.243",
      "K" : 128,
      "blob_biases" : 265,
      "name" : "input.241",
      "has_batch_norm" : 0,
      "type" : "convolution",
      "n_groups" : 1,
      "pad_t" : 1,
      "has_biases" : 1,
      "C" : 64,
      "bottom" : "input.237",
      "weights" : {
        "W_U8" : 267,
        "per_ch_qscale" : 271,
        "per_ch_qbias" : 269
      },
      "Nx" : 3,
      "pad_mode" : 0,
      "pad_value" : 0,
      "Ny" : 3,
      "n_parallel" : 1
    },
    {
      "top" : "hx4dup.5",
      "use_fractional_scale_factors" : false,
      "weights" : {

      },
      "fractional_scaling_factor_y" : 1,
      "type" : "upsample",
      "scaling_factor_x" : 2,
      "mode" : 1,
      "align_corners" : 0,
      "bottom" : "input.243",
      "debug_info" : "hx4dup.5",
      "fractional_scaling_factor_x" : 1,
      "is_legacy_mode" : 0,
      "name" : "hx4dup.5",
      "scaling_factor_y" : 2
    },
    {
      "weights" : {

      },
      "debug_info" : "input.245",
      "top" : "input.245",
      "type" : "concat",
      "name" : "input.245",
      "bottom" : "hx4dup.5,input.223"
    },
    {
      "pad_r" : 1,
      "fused_relu" : 1,
      "fused_tanh" : 0,
      "debug_info" : "input.249",
      "pad_fill_mode" : 0,
      "pad_b" : 1,
      "pad_l" : 1,
      "top" : "input.251",
      "K" : 128,
      "blob_biases" : 273,
      "name" : "input.249",
      "has_batch_norm" : 0,
      "type" : "convolution",
      "n_groups" : 1,
      "pad_t" : 1,
      "has_biases" : 1,
      "C" : 64,
      "bottom" : "input.245",
      "weights" : {
        "W_U8" : 275,
        "per_ch_qscale" : 279,
        "per_ch_qbias" : 277
      },
      "Nx" : 3,
      "pad_mode" : 0,
      "pad_value" : 0,
      "Ny" : 3,
      "n_parallel" : 1
    },
    {
      "top" : "hx3dup.5",
      "use_fractional_scale_factors" : false,
      "weights" : {

      },
      "fractional_scaling_factor_y" : 1,
      "type" : "upsample",
      "scaling_factor_x" : 2,
      "mode" : 1,
      "align_corners" : 0,
      "bottom" : "input.251",
      "debug_info" : "hx3dup.5",
      "fractional_scaling_factor_x" : 1,
      "is_legacy_mode" : 0,
      "name" : "hx3dup.5",
      "scaling_factor_y" : 2
    },
    {
      "weights" : {

      },
      "debug_info" : "input.253",
      "top" : "input.253",
      "type" : "concat",
      "name" : "input.253",
      "bottom" : "hx3dup.5,input.215"
    },
    {
      "pad_r" : 1,
      "fused_relu" : 1,
      "fused_tanh" : 0,
      "debug_info" : "input.257",
      "pad_fill_mode" : 0,
      "pad_b" : 1,
      "pad_l" : 1,
      "top" : "input.259",
      "K" : 128,
      "blob_biases" : 281,
      "name" : "input.257",
      "has_batch_norm" : 0,
      "type" : "convolution",
      "n_groups" : 1,
      "pad_t" : 1,
      "has_biases" : 1,
      "C" : 64,
      "bottom" : "input.253",
      "weights" : {
        "W_U8" : 283,
        "per_ch_qscale" : 287,
        "per_ch_qbias" : 285
      },
      "Nx" : 3,
      "pad_mode" : 0,
      "pad_value" : 0,
      "Ny" : 3,
      "n_parallel" : 1
    },
    {
      "top" : "hx2dup.5",
      "use_fractional_scale_factors" : false,
      "weights" : {

      },
      "fractional_scaling_factor_y" : 1,
      "type" : "upsample",
      "scaling_factor_x" : 2,
      "mode" : 1,
      "align_corners" : 0,
      "bottom" : "input.259",
      "debug_info" : "hx2dup.5",
      "fractional_scaling_factor_x" : 1,
      "is_legacy_mode" : 0,
      "name" : "hx2dup.5",
      "scaling_factor_y" : 2
    },
    {
      "weights" : {

      },
      "debug_info" : "input.261",
      "top" : "input.261",
      "type" : "concat",
      "name" : "input.261",
      "bottom" : "hx2dup.5,input.207"
    },
    {
      "pad_r" : 1,
      "fused_relu" : 1,
      "fused_tanh" : 0,
      "debug_info" : "input.265",
      "pad_fill_mode" : 0,
      "pad_b" : 1,
      "pad_l" : 1,
      "top" : "hx1d.5",
      "K" : 128,
      "blob_biases" : 289,
      "name" : "input.265",
      "has_batch_norm" : 0,
      "type" : "convolution",
      "n_groups" : 1,
      "pad_t" : 1,
      "has_biases" : 1,
      "C" : 256,
      "bottom" : "input.261",
      "weights" : {
        "W_U8" : 291,
        "per_ch_qscale" : 295,
        "per_ch_qbias" : 293
      },
      "Nx" : 3,
      "pad_mode" : 0,
      "pad_value" : 0,
      "Ny" : 3,
      "n_parallel" : 1
    },
    {
      "bottom" : "hx1d.5,input.201",
      "alpha" : 1,
      "operation" : 0,
      "weights" : {

      },
      "fused_relu" : 0,
      "debug_info" : "input.267",
      "top" : "input.267",
      "type" : "elementwise",
      "name" : "input.267",
      "beta" : 0
    },
    {
      "pad_r" : 0,
      "debug_info" : "input.269",
      "pad_fill_mode" : 0,
      "pad_b" : 0,
      "pad_l" : 0,
      "size_x" : 2,
      "top" : "input.269",
      "top_shape_style" : 2,
      "stride_x" : 2,
      "avg_or_max" : 1,
      "average_count_exclude_padding" : 1,
      "type" : "pool",
      "name" : "input.269",
      "pad_t" : 0,
      "stride_y" : 2,
      "bottom" : "input.267",
      "weights" : {

      },
      "pad_mode" : 0,
      "size_y" : 2,
      "pad_value" : 0
    },
    {
      "pad_r" : 1,
      "fused_relu" : 1,
      "fused_tanh" : 0,
      "debug_info" : "input.273",
      "pad_fill_mode" : 0,
      "pad_b" : 1,
      "pad_l" : 1,
      "top" : "input.275",
      "K" : 256,
      "blob_biases" : 297,
      "name" : "input.273",
      "has_batch_norm" : 0,
      "type" : "convolution",
      "n_groups" : 1,
      "pad_t" : 1,
      "has_biases" : 1,
      "C" : 512,
      "bottom" : "input.269",
      "weights" : {
        "W_U8" : 299,
        "per_ch_qscale" : 303,
        "per_ch_qbias" : 301
      },
      "Nx" : 3,
      "pad_mode" : 0,
      "pad_value" : 0,
      "Ny" : 3,
      "n_parallel" : 1
    },
    {
      "pad_r" : 1,
      "fused_relu" : 1,
      "fused_tanh" : 0,
      "debug_info" : "input.279",
      "pad_fill_mode" : 0,
      "pad_b" : 1,
      "pad_l" : 1,
      "top" : "input.281",
      "K" : 512,
      "blob_biases" : 305,
      "name" : "input.279",
      "has_batch_norm" : 0,
      "type" : "convolution",
      "n_groups" : 1,
      "pad_t" : 1,
      "has_biases" : 1,
      "C" : 128,
      "bottom" : "input.275",
      "weights" : {
        "W_U8" : 307,
        "per_ch_qscale" : 311,
        "per_ch_qbias" : 309
      },
      "Nx" : 3,
      "pad_mode" : 0,
      "pad_value" : 0,
      "Ny" : 3,
      "n_parallel" : 1
    },
    {
      "pad_r" : 0,
      "debug_info" : "input.283",
      "pad_fill_mode" : 0,
      "pad_b" : 0,
      "pad_l" : 0,
      "size_x" : 2,
      "top" : "input.283",
      "top_shape_style" : 2,
      "stride_x" : 2,
      "avg_or_max" : 1,
      "average_count_exclude_padding" : 1,
      "type" : "pool",
      "name" : "input.283",
      "pad_t" : 0,
      "stride_y" : 2,
      "bottom" : "input.281",
      "weights" : {

      },
      "pad_mode" : 0,
      "size_y" : 2,
      "pad_value" : 0
    },
    {
      "pad_r" : 1,
      "fused_relu" : 1,
      "fused_tanh" : 0,
      "debug_info" : "input.287",
      "pad_fill_mode" : 0,
      "pad_b" : 1,
      "pad_l" : 1,
      "top" : "input.289",
      "K" : 128,
      "blob_biases" : 313,
      "name" : "input.287",
      "has_batch_norm" : 0,
      "type" : "convolution",
      "n_groups" : 1,
      "pad_t" : 1,
      "has_biases" : 1,
      "C" : 128,
      "bottom" : "input.283",
      "weights" : {
        "W_U8" : 315,
        "per_ch_qscale" : 319,
        "per_ch_qbias" : 317
      },
      "Nx" : 3,
      "pad_mode" : 0,
      "pad_value" : 0,
      "Ny" : 3,
      "n_parallel" : 1
    },
    {
      "pad_r" : 0,
      "debug_info" : "input.291",
      "pad_fill_mode" : 0,
      "pad_b" : 0,
      "pad_l" : 0,
      "size_x" : 2,
      "top" : "input.291",
      "top_shape_style" : 2,
      "stride_x" : 2,
      "avg_or_max" : 1,
      "average_count_exclude_padding" : 1,
      "type" : "pool",
      "name" : "input.291",
      "pad_t" : 0,
      "stride_y" : 2,
      "bottom" : "input.289",
      "weights" : {

      },
      "pad_mode" : 0,
      "size_y" : 2,
      "pad_value" : 0
    },
    {
      "pad_r" : 1,
      "fused_relu" : 1,
      "fused_tanh" : 0,
      "debug_info" : "input.295",
      "pad_fill_mode" : 0,
      "pad_b" : 1,
      "pad_l" : 1,
      "top" : "input.297",
      "K" : 128,
      "blob_biases" : 321,
      "name" : "input.295",
      "has_batch_norm" : 0,
      "type" : "convolution",
      "n_groups" : 1,
      "pad_t" : 1,
      "has_biases" : 1,
      "C" : 128,
      "bottom" : "input.291",
      "weights" : {
        "W_U8" : 323,
        "per_ch_qscale" : 327,
        "per_ch_qbias" : 325
      },
      "Nx" : 3,
      "pad_mode" : 0,
      "pad_value" : 0,
      "Ny" : 3,
      "n_parallel" : 1
    },
    {
      "pad_r" : 2,
      "fused_relu" : 1,
      "fused_tanh" : 0,
      "debug_info" : "input.301",
      "pad_fill_mode" : 0,
      "pad_b" : 2,
      "pad_l" : 2,
      "top" : "hx4.1",
      "K" : 128,
      "blob_biases" : 329,
      "name" : "input.301",
      "has_batch_norm" : 0,
      "type" : "convolution",
      "n_groups" : 1,
      "pad_t" : 2,
      "has_biases" : 1,
      "C" : 128,
      "bottom" : "input.297",
      "weights" : {
        "W_U8" : 331,
        "per_ch_qscale" : 335,
        "per_ch_qbias" : 333
      },
      "Nx" : 3,
      "pad_mode" : 0,
      "dilation_x" : 2,
      "pad_value" : 0,
      "Ny" : 3,
      "n_parallel" : 1,
      "dilation_y" : 2
    },
    {
      "weights" : {

      },
      "debug_info" : "input.303",
      "top" : "input.303",
      "type" : "concat",
      "name" : "input.303",
      "bottom" : "hx4.1,input.297"
    },
    {
      "pad_r" : 1,
      "fused_relu" : 1,
      "fused_tanh" : 0,
      "debug_info" : "input.307",
      "pad_fill_mode" : 0,
      "pad_b" : 1,
      "pad_l" : 1,
      "top" : "input.309",
      "K" : 256,
      "blob_biases" : 337,
      "name" : "input.307",
      "has_batch_norm" : 0,
      "type" : "convolution",
      "n_groups" : 1,
      "pad_t" : 1,
      "has_biases" : 1,
      "C" : 128,
      "bottom" : "input.303",
      "weights" : {
        "W_U8" : 339,
        "per_ch_qscale" : 343,
        "per_ch_qbias" : 341
      },
      "Nx" : 3,
      "pad_mode" : 0,
      "pad_value" : 0,
      "Ny" : 3,
      "n_parallel" : 1
    },
    {
      "top" : "hx3dup.7",
      "use_fractional_scale_factors" : false,
      "weights" : {

      },
      "fractional_scaling_factor_y" : 1,
      "type" : "upsample",
      "scaling_factor_x" : 2,
      "mode" : 1,
      "align_corners" : 0,
      "bottom" : "input.309",
      "debug_info" : "hx3dup.7",
      "fractional_scaling_factor_x" : 1,
      "is_legacy_mode" : 0,
      "name" : "hx3dup.7",
      "scaling_factor_y" : 2
    },
    {
      "weights" : {

      },
      "debug_info" : "input.311",
      "top" : "input.311",
      "type" : "concat",
      "name" : "input.311",
      "bottom" : "hx3dup.7,input.289"
    },
    {
      "pad_r" : 1,
      "fused_relu" : 1,
      "fused_tanh" : 0,
      "debug_info" : "input.315",
      "pad_fill_mode" : 0,
      "pad_b" : 1,
      "pad_l" : 1,
      "top" : "input.317",
      "K" : 256,
      "blob_biases" : 345,
      "name" : "input.315",
      "has_batch_norm" : 0,
      "type" : "convolution",
      "n_groups" : 1,
      "pad_t" : 1,
      "has_biases" : 1,
      "C" : 128,
      "bottom" : "input.311",
      "weights" : {
        "W_U8" : 347,
        "per_ch_qscale" : 351,
        "per_ch_qbias" : 349
      },
      "Nx" : 3,
      "pad_mode" : 0,
      "pad_value" : 0,
      "Ny" : 3,
      "n_parallel" : 1
    },
    {
      "top" : "hx2dup.7",
      "use_fractional_scale_factors" : false,
      "weights" : {

      },
      "fractional_scaling_factor_y" : 1,
      "type" : "upsample",
      "scaling_factor_x" : 2,
      "mode" : 1,
      "align_corners" : 0,
      "bottom" : "input.317",
      "debug_info" : "hx2dup.7",
      "fractional_scaling_factor_x" : 1,
      "is_legacy_mode" : 0,
      "name" : "hx2dup.7",
      "scaling_factor_y" : 2
    },
    {
      "weights" : {

      },
      "debug_info" : "input.319",
      "top" : "input.319",
      "type" : "concat",
      "name" : "input.319",
      "bottom" : "hx2dup.7,input.281"
    },
    {
      "pad_r" : 1,
      "fused_relu" : 1,
      "fused_tanh" : 0,
      "debug_info" : "input.323",
      "pad_fill_mode" : 0,
      "pad_b" : 1,
      "pad_l" : 1,
      "top" : "hx1d.7",
      "K" : 256,
      "blob_biases" : 353,
      "name" : "input.323",
      "has_batch_norm" : 0,
      "type" : "convolution",
      "n_groups" : 1,
      "pad_t" : 1,
      "has_biases" : 1,
      "C" : 512,
      "bottom" : "input.319",
      "weights" : {
        "W_U8" : 355,
        "per_ch_qscale" : 359,
        "per_ch_qbias" : 357
      },
      "Nx" : 3,
      "pad_mode" : 0,
      "pad_value" : 0,
      "Ny" : 3,
      "n_parallel" : 1
    },
    {
      "bottom" : "hx1d.7,input.275",
      "alpha" : 1,
      "operation" : 0,
      "weights" : {

      },
      "fused_relu" : 0,
      "debug_info" : "input.325",
      "top" : "input.325",
      "type" : "elementwise",
      "name" : "input.325",
      "beta" : 0
    },
    {
      "pad_r" : 0,
      "debug_info" : "input.327",
      "pad_fill_mode" : 0,
      "pad_b" : 0,
      "pad_l" : 0,
      "size_x" : 2,
      "top" : "input.327",
      "top_shape_style" : 2,
      "stride_x" : 2,
      "avg_or_max" : 1,
      "average_count_exclude_padding" : 1,
      "type" : "pool",
      "name" : "input.327",
      "pad_t" : 0,
      "stride_y" : 2,
      "bottom" : "input.325",
      "weights" : {

      },
      "pad_mode" : 0,
      "size_y" : 2,
      "pad_value" : 0
    },
    {
      "pad_r" : 1,
      "fused_relu" : 1,
      "fused_tanh" : 0,
      "debug_info" : "input.331",
      "pad_fill_mode" : 0,
      "pad_b" : 1,
      "pad_l" : 1,
      "top" : "input.333",
      "K" : 512,
      "blob_biases" : 361,
      "name" : "input.331",
      "has_batch_norm" : 0,
      "type" : "convolution",
      "n_groups" : 1,
      "pad_t" : 1,
      "has_biases" : 1,
      "C" : 512,
      "bottom" : "input.327",
      "weights" : {
        "W_U8" : 363,
        "per_ch_qscale" : 367,
        "per_ch_qbias" : 365
      },
      "Nx" : 3,
      "pad_mode" : 0,
      "pad_value" : 0,
      "Ny" : 3,
      "n_parallel" : 1
    },
    {
      "pad_r" : 1,
      "fused_relu" : 1,
      "fused_tanh" : 0,
      "debug_info" : "input.337",
      "pad_fill_mode" : 0,
      "pad_b" : 1,
      "pad_l" : 1,
      "top" : "input.339",
      "K" : 512,
      "blob_biases" : 369,
      "name" : "input.337",
      "has_batch_norm" : 0,
      "type" : "convolution",
      "n_groups" : 1,
      "pad_t" : 1,
      "has_biases" : 1,
      "C" : 256,
      "bottom" : "input.333",
      "weights" : {
        "W_U8" : 371,
        "per_ch_qscale" : 375,
        "per_ch_qbias" : 373
      },
      "Nx" : 3,
      "pad_mode" : 0,
      "pad_value" : 0,
      "Ny" : 3,
      "n_parallel" : 1
    },
    {
      "pad_r" : 2,
      "fused_relu" : 1,
      "fused_tanh" : 0,
      "debug_info" : "input.343",
      "pad_fill_mode" : 0,
      "pad_b" : 2,
      "pad_l" : 2,
      "top" : "input.345",
      "K" : 256,
      "blob_biases" : 377,
      "name" : "input.343",
      "has_batch_norm" : 0,
      "type" : "convolution",
      "n_groups" : 1,
      "pad_t" : 2,
      "has_biases" : 1,
      "C" : 256,
      "bottom" : "input.339",
      "weights" : {
        "W_U8" : 379,
        "per_ch_qscale" : 383,
        "per_ch_qbias" : 381
      },
      "Nx" : 3,
      "pad_mode" : 0,
      "dilation_x" : 2,
      "pad_value" : 0,
      "Ny" : 3,
      "n_parallel" : 1,
      "dilation_y" : 2
    },
    {
      "pad_r" : 4,
      "fused_relu" : 1,
      "fused_tanh" : 0,
      "debug_info" : "input.349",
      "pad_fill_mode" : 0,
      "pad_b" : 4,
      "pad_l" : 4,
      "top" : "input.351",
      "K" : 256,
      "blob_biases" : 385,
      "name" : "input.349",
      "has_batch_norm" : 0,
      "type" : "convolution",
      "n_groups" : 1,
      "pad_t" : 4,
      "has_biases" : 1,
      "C" : 256,
      "bottom" : "input.345",
      "weights" : {
        "W_U8" : 387,
        "per_ch_qscale" : 391,
        "per_ch_qbias" : 389
      },
      "Nx" : 3,
      "pad_mode" : 0,
      "dilation_x" : 4,
      "pad_value" : 0,
      "Ny" : 3,
      "n_parallel" : 1,
      "dilation_y" : 4
    },
    {
      "pad_r" : 8,
      "fused_relu" : 1,
      "fused_tanh" : 0,
      "debug_info" : "input.355",
      "pad_fill_mode" : 0,
      "pad_b" : 8,
      "pad_l" : 8,
      "top" : "hx4.3",
      "K" : 256,
      "blob_biases" : 393,
      "name" : "input.355",
      "has_batch_norm" : 0,
      "type" : "convolution",
      "n_groups" : 1,
      "pad_t" : 8,
      "has_biases" : 1,
      "C" : 256,
      "bottom" : "input.351",
      "weights" : {
        "W_U8" : 395,
        "per_ch_qscale" : 399,
        "per_ch_qbias" : 397
      },
      "Nx" : 3,
      "pad_mode" : 0,
      "dilation_x" : 8,
      "pad_value" : 0,
      "Ny" : 3,
      "n_parallel" : 1,
      "dilation_y" : 8
    },
    {
      "weights" : {

      },
      "debug_info" : "input.357",
      "top" : "input.357",
      "type" : "concat",
      "name" : "input.357",
      "bottom" : "hx4.3,input.351"
    },
    {
      "pad_r" : 4,
      "fused_relu" : 1,
      "fused_tanh" : 0,
      "debug_info" : "input.361",
      "pad_fill_mode" : 0,
      "pad_b" : 4,
      "pad_l" : 4,
      "top" : "hx3d.1",
      "K" : 512,
      "blob_biases" : 401,
      "name" : "input.361",
      "has_batch_norm" : 0,
      "type" : "convolution",
      "n_groups" : 1,
      "pad_t" : 4,
      "has_biases" : 1,
      "C" : 256,
      "bottom" : "input.357",
      "weights" : {
        "W_U8" : 403,
        "per_ch_qscale" : 407,
        "per_ch_qbias" : 405
      },
      "Nx" : 3,
      "pad_mode" : 0,
      "dilation_x" : 4,
      "pad_value" : 0,
      "Ny" : 3,
      "n_parallel" : 1,
      "dilation_y" : 4
    },
    {
      "weights" : {

      },
      "debug_info" : "input.363",
      "top" : "input.363",
      "type" : "concat",
      "name" : "input.363",
      "bottom" : "hx3d.1,input.345"
    },
    {
      "pad_r" : 2,
      "fused_relu" : 1,
      "fused_tanh" : 0,
      "debug_info" : "input.367",
      "pad_fill_mode" : 0,
      "pad_b" : 2,
      "pad_l" : 2,
      "top" : "hx2d.1",
      "K" : 512,
      "blob_biases" : 409,
      "name" : "input.367",
      "has_batch_norm" : 0,
      "type" : "convolution",
      "n_groups" : 1,
      "pad_t" : 2,
      "has_biases" : 1,
      "C" : 256,
      "bottom" : "input.363",
      "weights" : {
        "W_U8" : 411,
        "per_ch_qscale" : 415,
        "per_ch_qbias" : 413
      },
      "Nx" : 3,
      "pad_mode" : 0,
      "dilation_x" : 2,
      "pad_value" : 0,
      "Ny" : 3,
      "n_parallel" : 1,
      "dilation_y" : 2
    },
    {
      "weights" : {

      },
      "debug_info" : "input.369",
      "top" : "input.369",
      "type" : "concat",
      "name" : "input.369",
      "bottom" : "hx2d.1,input.339"
    },
    {
      "pad_r" : 1,
      "fused_relu" : 1,
      "fused_tanh" : 0,
      "debug_info" : "input.373",
      "pad_fill_mode" : 0,
      "pad_b" : 1,
      "pad_l" : 1,
      "top" : "hx1d.9",
      "K" : 512,
      "blob_biases" : 417,
      "name" : "input.373",
      "has_batch_norm" : 0,
      "type" : "convolution",
      "n_groups" : 1,
      "pad_t" : 1,
      "has_biases" : 1,
      "C" : 512,
      "bottom" : "input.369",
      "weights" : {
        "W_U8" : 419,
        "per_ch_qscale" : 423,
        "per_ch_qbias" : 421
      },
      "Nx" : 3,
      "pad_mode" : 0,
      "pad_value" : 0,
      "Ny" : 3,
      "n_parallel" : 1
    },
    {
      "bottom" : "hx1d.9,input.333",
      "alpha" : 1,
      "operation" : 0,
      "weights" : {

      },
      "fused_relu" : 0,
      "debug_info" : "input.375",
      "top" : "input.375",
      "type" : "elementwise",
      "name" : "input.375",
      "beta" : 0
    },
    {
      "pad_r" : 0,
      "debug_info" : "input.377",
      "pad_fill_mode" : 0,
      "pad_b" : 0,
      "pad_l" : 0,
      "size_x" : 2,
      "top" : "input.377",
      "top_shape_style" : 2,
      "stride_x" : 2,
      "avg_or_max" : 1,
      "average_count_exclude_padding" : 1,
      "type" : "pool",
      "name" : "input.377",
      "pad_t" : 0,
      "stride_y" : 2,
      "bottom" : "input.375",
      "weights" : {

      },
      "pad_mode" : 0,
      "size_y" : 2,
      "pad_value" : 0
    },
    {
      "pad_r" : 1,
      "fused_relu" : 1,
      "fused_tanh" : 0,
      "debug_info" : "input.381",
      "pad_fill_mode" : 0,
      "pad_b" : 1,
      "pad_l" : 1,
      "top" : "input.383",
      "K" : 512,
      "blob_biases" : 425,
      "name" : "input.381",
      "has_batch_norm" : 0,
      "type" : "convolution",
      "n_groups" : 1,
      "pad_t" : 1,
      "has_biases" : 1,
      "C" : 512,
      "bottom" : "input.377",
      "weights" : {
        "W_U8" : 427,
        "per_ch_qscale" : 431,
        "per_ch_qbias" : 429
      },
      "Nx" : 3,
      "pad_mode" : 0,
      "pad_value" : 0,
      "Ny" : 3,
      "n_parallel" : 1
    },
    {
      "pad_r" : 1,
      "fused_relu" : 1,
      "fused_tanh" : 0,
      "debug_info" : "input.387",
      "pad_fill_mode" : 0,
      "pad_b" : 1,
      "pad_l" : 1,
      "top" : "input.389",
      "K" : 512,
      "blob_biases" : 433,
      "name" : "input.387",
      "has_batch_norm" : 0,
      "type" : "convolution",
      "n_groups" : 1,
      "pad_t" : 1,
      "has_biases" : 1,
      "C" : 256,
      "bottom" : "input.383",
      "weights" : {
        "W_U8" : 435,
        "per_ch_qscale" : 439,
        "per_ch_qbias" : 437
      },
      "Nx" : 3,
      "pad_mode" : 0,
      "pad_value" : 0,
      "Ny" : 3,
      "n_parallel" : 1
    },
    {
      "pad_r" : 2,
      "fused_relu" : 1,
      "fused_tanh" : 0,
      "debug_info" : "input.393",
      "pad_fill_mode" : 0,
      "pad_b" : 2,
      "pad_l" : 2,
      "top" : "input.395",
      "K" : 256,
      "blob_biases" : 441,
      "name" : "input.393",
      "has_batch_norm" : 0,
      "type" : "convolution",
      "n_groups" : 1,
      "pad_t" : 2,
      "has_biases" : 1,
      "C" : 256,
      "bottom" : "input.389",
      "weights" : {
        "W_U8" : 443,
        "per_ch_qscale" : 447,
        "per_ch_qbias" : 445
      },
      "Nx" : 3,
      "pad_mode" : 0,
      "dilation_x" : 2,
      "pad_value" : 0,
      "Ny" : 3,
      "n_parallel" : 1,
      "dilation_y" : 2
    },
    {
      "pad_r" : 4,
      "fused_relu" : 1,
      "fused_tanh" : 0,
      "debug_info" : "input.399",
      "pad_fill_mode" : 0,
      "pad_b" : 4,
      "pad_l" : 4,
      "top" : "input.401",
      "K" : 256,
      "blob_biases" : 449,
      "name" : "input.399",
      "has_batch_norm" : 0,
      "type" : "convolution",
      "n_groups" : 1,
      "pad_t" : 4,
      "has_biases" : 1,
      "C" : 256,
      "bottom" : "input.395",
      "weights" : {
        "W_U8" : 451,
        "per_ch_qscale" : 455,
        "per_ch_qbias" : 453
      },
      "Nx" : 3,
      "pad_mode" : 0,
      "dilation_x" : 4,
      "pad_value" : 0,
      "Ny" : 3,
      "n_parallel" : 1,
      "dilation_y" : 4
    },
    {
      "pad_r" : 8,
      "fused_relu" : 1,
      "fused_tanh" : 0,
      "debug_info" : "input.405",
      "pad_fill_mode" : 0,
      "pad_b" : 8,
      "pad_l" : 8,
      "top" : "hx4.5",
      "K" : 256,
      "blob_biases" : 457,
      "name" : "input.405",
      "has_batch_norm" : 0,
      "type" : "convolution",
      "n_groups" : 1,
      "pad_t" : 8,
      "has_biases" : 1,
      "C" : 256,
      "bottom" : "input.401",
      "weights" : {
        "W_U8" : 459,
        "per_ch_qscale" : 463,
        "per_ch_qbias" : 461
      },
      "Nx" : 3,
      "pad_mode" : 0,
      "dilation_x" : 8,
      "pad_value" : 0,
      "Ny" : 3,
      "n_parallel" : 1,
      "dilation_y" : 8
    },
    {
      "weights" : {

      },
      "debug_info" : "input.407",
      "top" : "input.407",
      "type" : "concat",
      "name" : "input.407",
      "bottom" : "hx4.5,input.401"
    },
    {
      "pad_r" : 4,
      "fused_relu" : 1,
      "fused_tanh" : 0,
      "debug_info" : "input.411",
      "pad_fill_mode" : 0,
      "pad_b" : 4,
      "pad_l" : 4,
      "top" : "hx3d.3",
      "K" : 512,
      "blob_biases" : 465,
      "name" : "input.411",
      "has_batch_norm" : 0,
      "type" : "convolution",
      "n_groups" : 1,
      "pad_t" : 4,
      "has_biases" : 1,
      "C" : 256,
      "bottom" : "input.407",
      "weights" : {
        "W_U8" : 467,
        "per_ch_qscale" : 471,
        "per_ch_qbias" : 469
      },
      "Nx" : 3,
      "pad_mode" : 0,
      "dilation_x" : 4,
      "pad_value" : 0,
      "Ny" : 3,
      "n_parallel" : 1,
      "dilation_y" : 4
    },
    {
      "weights" : {

      },
      "debug_info" : "input.413",
      "top" : "input.413",
      "type" : "concat",
      "name" : "input.413",
      "bottom" : "hx3d.3,input.395"
    },
    {
      "pad_r" : 2,
      "fused_relu" : 1,
      "fused_tanh" : 0,
      "debug_info" : "input.417",
      "pad_fill_mode" : 0,
      "pad_b" : 2,
      "pad_l" : 2,
      "top" : "hx2d.3",
      "K" : 512,
      "blob_biases" : 473,
      "name" : "input.417",
      "has_batch_norm" : 0,
      "type" : "convolution",
      "n_groups" : 1,
      "pad_t" : 2,
      "has_biases" : 1,
      "C" : 256,
      "bottom" : "input.413",
      "weights" : {
        "W_U8" : 475,
        "per_ch_qscale" : 479,
        "per_ch_qbias" : 477
      },
      "Nx" : 3,
      "pad_mode" : 0,
      "dilation_x" : 2,
      "pad_value" : 0,
      "Ny" : 3,
      "n_parallel" : 1,
      "dilation_y" : 2
    },
    {
      "weights" : {

      },
      "debug_info" : "input.419",
      "top" : "input.419",
      "type" : "concat",
      "name" : "input.419",
      "bottom" : "hx2d.3,input.389"
    },
    {
      "pad_r" : 1,
      "fused_relu" : 1,
      "fused_tanh" : 0,
      "debug_info" : "input.423",
      "pad_fill_mode" : 0,
      "pad_b" : 1,
      "pad_l" : 1,
      "top" : "hx1d.11",
      "K" : 512,
      "blob_biases" : 481,
      "name" : "input.423",
      "has_batch_norm" : 0,
      "type" : "convolution",
      "n_groups" : 1,
      "pad_t" : 1,
      "has_biases" : 1,
      "C" : 512,
      "bottom" : "input.419",
      "weights" : {
        "W_U8" : 483,
        "per_ch_qscale" : 487,
        "per_ch_qbias" : 485
      },
      "Nx" : 3,
      "pad_mode" : 0,
      "pad_value" : 0,
      "Ny" : 3,
      "n_parallel" : 1
    },
    {
      "bottom" : "hx1d.11,input.383",
      "alpha" : 1,
      "operation" : 0,
      "weights" : {

      },
      "fused_relu" : 0,
      "debug_info" : "input.425",
      "top" : "input.425",
      "type" : "elementwise",
      "name" : "input.425",
      "beta" : 0
    },
    {
      "top" : "hx6up",
      "use_fractional_scale_factors" : false,
      "weights" : {

      },
      "fractional_scaling_factor_y" : 1,
      "type" : "upsample",
      "scaling_factor_x" : 2,
      "mode" : 1,
      "align_corners" : 0,
      "bottom" : "input.425",
      "debug_info" : "hx6up",
      "fractional_scaling_factor_x" : 1,
      "is_legacy_mode" : 0,
      "name" : "hx6up",
      "scaling_factor_y" : 2
    },
    {
      "weights" : {

      },
      "debug_info" : "input.427",
      "top" : "input.427",
      "type" : "concat",
      "name" : "input.427",
      "bottom" : "hx6up,input.375"
    },
    {
      "pad_r" : 1,
      "fused_relu" : 1,
      "fused_tanh" : 0,
      "debug_info" : "input.431",
      "pad_fill_mode" : 0,
      "pad_b" : 1,
      "pad_l" : 1,
      "top" : "input.433",
      "K" : 1024,
      "blob_biases" : 489,
      "name" : "input.431",
      "has_batch_norm" : 0,
      "type" : "convolution",
      "n_groups" : 1,
      "pad_t" : 1,
      "has_biases" : 1,
      "C" : 512,
      "bottom" : "input.427",
      "weights" : {
        "W_U8" : 491,
        "per_ch_qscale" : 495,
        "per_ch_qbias" : 493
      },
      "Nx" : 3,
      "pad_mode" : 0,
      "pad_value" : 0,
      "Ny" : 3,
      "n_parallel" : 1
    },
    {
      "pad_r" : 1,
      "fused_relu" : 1,
      "fused_tanh" : 0,
      "debug_info" : "input.437",
      "pad_fill_mode" : 0,
      "pad_b" : 1,
      "pad_l" : 1,
      "top" : "input.439",
      "K" : 512,
      "blob_biases" : 497,
      "name" : "input.437",
      "has_batch_norm" : 0,
      "type" : "convolution",
      "n_groups" : 1,
      "pad_t" : 1,
      "has_biases" : 1,
      "C" : 256,
      "bottom" : "input.433",
      "weights" : {
        "W_U8" : 499,
        "per_ch_qscale" : 503,
        "per_ch_qbias" : 501
      },
      "Nx" : 3,
      "pad_mode" : 0,
      "pad_value" : 0,
      "Ny" : 3,
      "n_parallel" : 1
    },
    {
      "pad_r" : 2,
      "fused_relu" : 1,
      "fused_tanh" : 0,
      "debug_info" : "input.443",
      "pad_fill_mode" : 0,
      "pad_b" : 2,
      "pad_l" : 2,
      "top" : "input.445",
      "K" : 256,
      "blob_biases" : 505,
      "name" : "input.443",
      "has_batch_norm" : 0,
      "type" : "convolution",
      "n_groups" : 1,
      "pad_t" : 2,
      "has_biases" : 1,
      "C" : 256,
      "bottom" : "input.439",
      "weights" : {
        "W_U8" : 507,
        "per_ch_qscale" : 511,
        "per_ch_qbias" : 509
      },
      "Nx" : 3,
      "pad_mode" : 0,
      "dilation_x" : 2,
      "pad_value" : 0,
      "Ny" : 3,
      "n_parallel" : 1,
      "dilation_y" : 2
    },
    {
      "pad_r" : 4,
      "fused_relu" : 1,
      "fused_tanh" : 0,
      "debug_info" : "input.449",
      "pad_fill_mode" : 0,
      "pad_b" : 4,
      "pad_l" : 4,
      "top" : "input.451",
      "K" : 256,
      "blob_biases" : 513,
      "name" : "input.449",
      "has_batch_norm" : 0,
      "type" : "convolution",
      "n_groups" : 1,
      "pad_t" : 4,
      "has_biases" : 1,
      "C" : 256,
      "bottom" : "input.445",
      "weights" : {
        "W_U8" : 515,
        "per_ch_qscale" : 519,
        "per_ch_qbias" : 517
      },
      "Nx" : 3,
      "pad_mode" : 0,
      "dilation_x" : 4,
      "pad_value" : 0,
      "Ny" : 3,
      "n_parallel" : 1,
      "dilation_y" : 4
    },
    {
      "pad_r" : 8,
      "fused_relu" : 1,
      "fused_tanh" : 0,
      "debug_info" : "input.455",
      "pad_fill_mode" : 0,
      "pad_b" : 8,
      "pad_l" : 8,
      "top" : "hx4.7",
      "K" : 256,
      "blob_biases" : 521,
      "name" : "input.455",
      "has_batch_norm" : 0,
      "type" : "convolution",
      "n_groups" : 1,
      "pad_t" : 8,
      "has_biases" : 1,
      "C" : 256,
      "bottom" : "input.451",
      "weights" : {
        "W_U8" : 523,
        "per_ch_qscale" : 527,
        "per_ch_qbias" : 525
      },
      "Nx" : 3,
      "pad_mode" : 0,
      "dilation_x" : 8,
      "pad_value" : 0,
      "Ny" : 3,
      "n_parallel" : 1,
      "dilation_y" : 8
    },
    {
      "weights" : {

      },
      "debug_info" : "input.457",
      "top" : "input.457",
      "type" : "concat",
      "name" : "input.457",
      "bottom" : "hx4.7,input.451"
    },
    {
      "pad_r" : 4,
      "fused_relu" : 1,
      "fused_tanh" : 0,
      "debug_info" : "input.461",
      "pad_fill_mode" : 0,
      "pad_b" : 4,
      "pad_l" : 4,
      "top" : "hx3d",
      "K" : 512,
      "blob_biases" : 529,
      "name" : "input.461",
      "has_batch_norm" : 0,
      "type" : "convolution",
      "n_groups" : 1,
      "pad_t" : 4,
      "has_biases" : 1,
      "C" : 256,
      "bottom" : "input.457",
      "weights" : {
        "W_U8" : 531,
        "per_ch_qscale" : 535,
        "per_ch_qbias" : 533
      },
      "Nx" : 3,
      "pad_mode" : 0,
      "dilation_x" : 4,
      "pad_value" : 0,
      "Ny" : 3,
      "n_parallel" : 1,
      "dilation_y" : 4
    },
    {
      "weights" : {

      },
      "debug_info" : "input.463",
      "top" : "input.463",
      "type" : "concat",
      "name" : "input.463",
      "bottom" : "hx3d,input.445"
    },
    {
      "pad_r" : 2,
      "fused_relu" : 1,
      "fused_tanh" : 0,
      "debug_info" : "input.467",
      "pad_fill_mode" : 0,
      "pad_b" : 2,
      "pad_l" : 2,
      "top" : "hx2d",
      "K" : 512,
      "blob_biases" : 537,
      "name" : "input.467",
      "has_batch_norm" : 0,
      "type" : "convolution",
      "n_groups" : 1,
      "pad_t" : 2,
      "has_biases" : 1,
      "C" : 256,
      "bottom" : "input.463",
      "weights" : {
        "W_U8" : 539,
        "per_ch_qscale" : 543,
        "per_ch_qbias" : 541
      },
      "Nx" : 3,
      "pad_mode" : 0,
      "dilation_x" : 2,
      "pad_value" : 0,
      "Ny" : 3,
      "n_parallel" : 1,
      "dilation_y" : 2
    },
    {
      "weights" : {

      },
      "debug_info" : "input.469",
      "top" : "input.469",
      "type" : "concat",
      "name" : "input.469",
      "bottom" : "hx2d,input.439"
    },
    {
      "pad_r" : 1,
      "fused_relu" : 1,
      "fused_tanh" : 0,
      "debug_info" : "input.473",
      "pad_fill_mode" : 0,
      "pad_b" : 1,
      "pad_l" : 1,
      "top" : "hx1d.13",
      "K" : 512,
      "blob_biases" : 545,
      "name" : "input.473",
      "has_batch_norm" : 0,
      "type" : "convolution",
      "n_groups" : 1,
      "pad_t" : 1,
      "has_biases" : 1,
      "C" : 512,
      "bottom" : "input.469",
      "weights" : {
        "W_U8" : 547,
        "per_ch_qscale" : 551,
        "per_ch_qbias" : 549
      },
      "Nx" : 3,
      "pad_mode" : 0,
      "pad_value" : 0,
      "Ny" : 3,
      "n_parallel" : 1
    },
    {
      "bottom" : "hx1d.13,input.433",
      "alpha" : 1,
      "operation" : 0,
      "weights" : {

      },
      "fused_relu" : 0,
      "debug_info" : "input.475",
      "top" : "input.475",
      "type" : "elementwise",
      "name" : "input.475",
      "beta" : 0
    },
    {
      "top" : "hx5dup.5",
      "use_fractional_scale_factors" : false,
      "weights" : {

      },
      "fractional_scaling_factor_y" : 1,
      "type" : "upsample",
      "scaling_factor_x" : 2,
      "mode" : 1,
      "align_corners" : 0,
      "bottom" : "input.475",
      "debug_info" : "hx5dup.5",
      "fractional_scaling_factor_x" : 1,
      "is_legacy_mode" : 0,
      "name" : "hx5dup.5",
      "scaling_factor_y" : 2
    },
    {
      "weights" : {

      },
      "debug_info" : "input.477",
      "top" : "input.477",
      "type" : "concat",
      "name" : "input.477",
      "bottom" : "hx5dup.5,input.325"
    },
    {
      "pad_r" : 1,
      "fused_relu" : 1,
      "fused_tanh" : 0,
      "debug_info" : "input.481",
      "pad_fill_mode" : 0,
      "pad_b" : 1,
      "pad_l" : 1,
      "top" : "input.483",
      "K" : 1024,
      "blob_biases" : 553,
      "name" : "input.481",
      "has_batch_norm" : 0,
      "type" : "convolution",
      "n_groups" : 1,
      "pad_t" : 1,
      "has_biases" : 1,
      "C" : 256,
      "bottom" : "input.477",
      "weights" : {
        "W_U8" : 555,
        "per_ch_qscale" : 559,
        "per_ch_qbias" : 557
      },
      "Nx" : 3,
      "pad_mode" : 0,
      "pad_value" : 0,
      "Ny" : 3,
      "n_parallel" : 1
    },
    {
      "pad_r" : 1,
      "fused_relu" : 1,
      "fused_tanh" : 0,
      "debug_info" : "input.487",
      "pad_fill_mode" : 0,
      "pad_b" : 1,
      "pad_l" : 1,
      "top" : "input.489",
      "K" : 256,
      "blob_biases" : 561,
      "name" : "input.487",
      "has_batch_norm" : 0,
      "type" : "convolution",
      "n_groups" : 1,
      "pad_t" : 1,
      "has_biases" : 1,
      "C" : 128,
      "bottom" : "input.483",
      "weights" : {
        "W_U8" : 563,
        "per_ch_qscale" : 567,
        "per_ch_qbias" : 565
      },
      "Nx" : 3,
      "pad_mode" : 0,
      "pad_value" : 0,
      "Ny" : 3,
      "n_parallel" : 1
    },
    {
      "pad_r" : 0,
      "debug_info" : "input.491",
      "pad_fill_mode" : 0,
      "pad_b" : 0,
      "pad_l" : 0,
      "size_x" : 2,
      "top" : "input.491",
      "top_shape_style" : 2,
      "stride_x" : 2,
      "avg_or_max" : 1,
      "average_count_exclude_padding" : 1,
      "type" : "pool",
      "name" : "input.491",
      "pad_t" : 0,
      "stride_y" : 2,
      "bottom" : "input.489",
      "weights" : {

      },
      "pad_mode" : 0,
      "size_y" : 2,
      "pad_value" : 0
    },
    {
      "pad_r" : 1,
      "fused_relu" : 1,
      "fused_tanh" : 0,
      "debug_info" : "input.495",
      "pad_fill_mode" : 0,
      "pad_b" : 1,
      "pad_l" : 1,
      "top" : "input.497",
      "K" : 128,
      "blob_biases" : 569,
      "name" : "input.495",
      "has_batch_norm" : 0,
      "type" : "convolution",
      "n_groups" : 1,
      "pad_t" : 1,
      "has_biases" : 1,
      "C" : 128,
      "bottom" : "input.491",
      "weights" : {
        "W_U8" : 571,
        "per_ch_qscale" : 575,
        "per_ch_qbias" : 573
      },
      "Nx" : 3,
      "pad_mode" : 0,
      "pad_value" : 0,
      "Ny" : 3,
      "n_parallel" : 1
    },
    {
      "pad_r" : 0,
      "debug_info" : "input.499",
      "pad_fill_mode" : 0,
      "pad_b" : 0,
      "pad_l" : 0,
      "size_x" : 2,
      "top" : "input.499",
      "top_shape_style" : 2,
      "stride_x" : 2,
      "avg_or_max" : 1,
      "average_count_exclude_padding" : 1,
      "type" : "pool",
      "name" : "input.499",
      "pad_t" : 0,
      "stride_y" : 2,
      "bottom" : "input.497",
      "weights" : {

      },
      "pad_mode" : 0,
      "size_y" : 2,
      "pad_value" : 0
    },
    {
      "pad_r" : 1,
      "fused_relu" : 1,
      "fused_tanh" : 0,
      "debug_info" : "input.503",
      "pad_fill_mode" : 0,
      "pad_b" : 1,
      "pad_l" : 1,
      "top" : "input.505",
      "K" : 128,
      "blob_biases" : 577,
      "name" : "input.503",
      "has_batch_norm" : 0,
      "type" : "convolution",
      "n_groups" : 1,
      "pad_t" : 1,
      "has_biases" : 1,
      "C" : 128,
      "bottom" : "input.499",
      "weights" : {
        "W_U8" : 579,
        "per_ch_qscale" : 583,
        "per_ch_qbias" : 581
      },
      "Nx" : 3,
      "pad_mode" : 0,
      "pad_value" : 0,
      "Ny" : 3,
      "n_parallel" : 1
    },
    {
      "pad_r" : 2,
      "fused_relu" : 1,
      "fused_tanh" : 0,
      "debug_info" : "input.509",
      "pad_fill_mode" : 0,
      "pad_b" : 2,
      "pad_l" : 2,
      "top" : "hx4",
      "K" : 128,
      "blob_biases" : 585,
      "name" : "input.509",
      "has_batch_norm" : 0,
      "type" : "convolution",
      "n_groups" : 1,
      "pad_t" : 2,
      "has_biases" : 1,
      "C" : 128,
      "bottom" : "input.505",
      "weights" : {
        "W_U8" : 587,
        "per_ch_qscale" : 591,
        "per_ch_qbias" : 589
      },
      "Nx" : 3,
      "pad_mode" : 0,
      "dilation_x" : 2,
      "pad_value" : 0,
      "Ny" : 3,
      "n_parallel" : 1,
      "dilation_y" : 2
    },
    {
      "weights" : {

      },
      "debug_info" : "input.511",
      "top" : "input.511",
      "type" : "concat",
      "name" : "input.511",
      "bottom" : "hx4,input.505"
    },
    {
      "pad_r" : 1,
      "fused_relu" : 1,
      "fused_tanh" : 0,
      "debug_info" : "input.515",
      "pad_fill_mode" : 0,
      "pad_b" : 1,
      "pad_l" : 1,
      "top" : "input.517",
      "K" : 256,
      "blob_biases" : 593,
      "name" : "input.515",
      "has_batch_norm" : 0,
      "type" : "convolution",
      "n_groups" : 1,
      "pad_t" : 1,
      "has_biases" : 1,
      "C" : 128,
      "bottom" : "input.511",
      "weights" : {
        "W_U8" : 595,
        "per_ch_qscale" : 599,
        "per_ch_qbias" : 597
      },
      "Nx" : 3,
      "pad_mode" : 0,
      "pad_value" : 0,
      "Ny" : 3,
      "n_parallel" : 1
    },
    {
      "top" : "hx3dup.9",
      "use_fractional_scale_factors" : false,
      "weights" : {

      },
      "fractional_scaling_factor_y" : 1,
      "type" : "upsample",
      "scaling_factor_x" : 2,
      "mode" : 1,
      "align_corners" : 0,
      "bottom" : "input.517",
      "debug_info" : "hx3dup.9",
      "fractional_scaling_factor_x" : 1,
      "is_legacy_mode" : 0,
      "name" : "hx3dup.9",
      "scaling_factor_y" : 2
    },
    {
      "weights" : {

      },
      "debug_info" : "input.519",
      "top" : "input.519",
      "type" : "concat",
      "name" : "input.519",
      "bottom" : "hx3dup.9,input.497"
    },
    {
      "pad_r" : 1,
      "fused_relu" : 1,
      "fused_tanh" : 0,
      "debug_info" : "input.523",
      "pad_fill_mode" : 0,
      "pad_b" : 1,
      "pad_l" : 1,
      "top" : "input.525",
      "K" : 256,
      "blob_biases" : 601,
      "name" : "input.523",
      "has_batch_norm" : 0,
      "type" : "convolution",
      "n_groups" : 1,
      "pad_t" : 1,
      "has_biases" : 1,
      "C" : 128,
      "bottom" : "input.519",
      "weights" : {
        "W_U8" : 603,
        "per_ch_qscale" : 607,
        "per_ch_qbias" : 605
      },
      "Nx" : 3,
      "pad_mode" : 0,
      "pad_value" : 0,
      "Ny" : 3,
      "n_parallel" : 1
    },
    {
      "top" : "hx2dup.9",
      "use_fractional_scale_factors" : false,
      "weights" : {

      },
      "fractional_scaling_factor_y" : 1,
      "type" : "upsample",
      "scaling_factor_x" : 2,
      "mode" : 1,
      "align_corners" : 0,
      "bottom" : "input.525",
      "debug_info" : "hx2dup.9",
      "fractional_scaling_factor_x" : 1,
      "is_legacy_mode" : 0,
      "name" : "hx2dup.9",
      "scaling_factor_y" : 2
    },
    {
      "weights" : {

      },
      "debug_info" : "input.527",
      "top" : "input.527",
      "type" : "concat",
      "name" : "input.527",
      "bottom" : "hx2dup.9,input.489"
    },
    {
      "pad_r" : 1,
      "fused_relu" : 1,
      "fused_tanh" : 0,
      "debug_info" : "input.531",
      "pad_fill_mode" : 0,
      "pad_b" : 1,
      "pad_l" : 1,
      "top" : "hx1d.15",
      "K" : 256,
      "blob_biases" : 609,
      "name" : "input.531",
      "has_batch_norm" : 0,
      "type" : "convolution",
      "n_groups" : 1,
      "pad_t" : 1,
      "has_biases" : 1,
      "C" : 256,
      "bottom" : "input.527",
      "weights" : {
        "W_U8" : 611,
        "per_ch_qscale" : 615,
        "per_ch_qbias" : 613
      },
      "Nx" : 3,
      "pad_mode" : 0,
      "pad_value" : 0,
      "Ny" : 3,
      "n_parallel" : 1
    },
    {
      "bottom" : "hx1d.15,input.483",
      "alpha" : 1,
      "operation" : 0,
      "weights" : {

      },
      "fused_relu" : 0,
      "debug_info" : "input.533",
      "top" : "input.533",
      "type" : "elementwise",
      "name" : "input.533",
      "beta" : 0
    },
    {
      "top" : "hx4dup.7",
      "use_fractional_scale_factors" : false,
      "weights" : {

      },
      "fractional_scaling_factor_y" : 1,
      "type" : "upsample",
      "scaling_factor_x" : 2,
      "mode" : 1,
      "align_corners" : 0,
      "bottom" : "input.533",
      "debug_info" : "hx4dup.7",
      "fractional_scaling_factor_x" : 1,
      "is_legacy_mode" : 0,
      "name" : "hx4dup.7",
      "scaling_factor_y" : 2
    },
    {
      "weights" : {

      },
      "debug_info" : "input.535",
      "top" : "input.535",
      "type" : "concat",
      "name" : "input.535",
      "bottom" : "hx4dup.7,input.267"
    },
    {
      "pad_r" : 1,
      "fused_relu" : 1,
      "fused_tanh" : 0,
      "debug_info" : "input.539",
      "pad_fill_mode" : 0,
      "pad_b" : 1,
      "pad_l" : 1,
      "top" : "input.541",
      "K" : 512,
      "blob_biases" : 617,
      "name" : "input.539",
      "has_batch_norm" : 0,
      "type" : "convolution",
      "n_groups" : 1,
      "pad_t" : 1,
      "has_biases" : 1,
      "C" : 128,
      "bottom" : "input.535",
      "weights" : {
        "W_U8" : 619,
        "per_ch_qscale" : 623,
        "per_ch_qbias" : 621
      },
      "Nx" : 3,
      "pad_mode" : 0,
      "pad_value" : 0,
      "Ny" : 3,
      "n_parallel" : 1
    },
    {
      "pad_r" : 1,
      "fused_relu" : 1,
      "fused_tanh" : 0,
      "debug_info" : "input.545",
      "pad_fill_mode" : 0,
      "pad_b" : 1,
      "pad_l" : 1,
      "top" : "input.547",
      "K" : 128,
      "blob_biases" : 625,
      "name" : "input.545",
      "has_batch_norm" : 0,
      "type" : "convolution",
      "n_groups" : 1,
      "pad_t" : 1,
      "has_biases" : 1,
      "C" : 64,
      "bottom" : "input.541",
      "weights" : {
        "W_U8" : 627,
        "per_ch_qscale" : 631,
        "per_ch_qbias" : 629
      },
      "Nx" : 3,
      "pad_mode" : 0,
      "pad_value" : 0,
      "Ny" : 3,
      "n_parallel" : 1
    },
    {
      "pad_r" : 0,
      "debug_info" : "input.549",
      "pad_fill_mode" : 0,
      "pad_b" : 0,
      "pad_l" : 0,
      "size_x" : 2,
      "top" : "input.549",
      "top_shape_style" : 2,
      "stride_x" : 2,
      "avg_or_max" : 1,
      "average_count_exclude_padding" : 1,
      "type" : "pool",
      "name" : "input.549",
      "pad_t" : 0,
      "stride_y" : 2,
      "bottom" : "input.547",
      "weights" : {

      },
      "pad_mode" : 0,
      "size_y" : 2,
      "pad_value" : 0
    },
    {
      "pad_r" : 1,
      "fused_relu" : 1,
      "fused_tanh" : 0,
      "debug_info" : "input.553",
      "pad_fill_mode" : 0,
      "pad_b" : 1,
      "pad_l" : 1,
      "top" : "input.555",
      "K" : 64,
      "blob_biases" : 633,
      "name" : "input.553",
      "has_batch_norm" : 0,
      "type" : "convolution",
      "n_groups" : 1,
      "pad_t" : 1,
      "has_biases" : 1,
      "C" : 64,
      "bottom" : "input.549",
      "weights" : {
        "W_U8" : 635,
        "per_ch_qscale" : 639,
        "per_ch_qbias" : 637
      },
      "Nx" : 3,
      "pad_mode" : 0,
      "pad_value" : 0,
      "Ny" : 3,
      "n_parallel" : 1
    },
    {
      "pad_r" : 0,
      "debug_info" : "input.557",
      "pad_fill_mode" : 0,
      "pad_b" : 0,
      "pad_l" : 0,
      "size_x" : 2,
      "top" : "input.557",
      "top_shape_style" : 2,
      "stride_x" : 2,
      "avg_or_max" : 1,
      "average_count_exclude_padding" : 1,
      "type" : "pool",
      "name" : "input.557",
      "pad_t" : 0,
      "stride_y" : 2,
      "bottom" : "input.555",
      "weights" : {

      },
      "pad_mode" : 0,
      "size_y" : 2,
      "pad_value" : 0
    },
    {
      "pad_r" : 1,
      "fused_relu" : 1,
      "fused_tanh" : 0,
      "debug_info" : "input.561",
      "pad_fill_mode" : 0,
      "pad_b" : 1,
      "pad_l" : 1,
      "top" : "input.563",
      "K" : 64,
      "blob_biases" : 641,
      "name" : "input.561",
      "has_batch_norm" : 0,
      "type" : "convolution",
      "n_groups" : 1,
      "pad_t" : 1,
      "has_biases" : 1,
      "C" : 64,
      "bottom" : "input.557",
      "weights" : {
        "W_U8" : 643,
        "per_ch_qscale" : 647,
        "per_ch_qbias" : 645
      },
      "Nx" : 3,
      "pad_mode" : 0,
      "pad_value" : 0,
      "Ny" : 3,
      "n_parallel" : 1
    },
    {
      "pad_r" : 0,
      "debug_info" : "input.565",
      "pad_fill_mode" : 0,
      "pad_b" : 0,
      "pad_l" : 0,
      "size_x" : 2,
      "top" : "input.565",
      "top_shape_style" : 2,
      "stride_x" : 2,
      "avg_or_max" : 1,
      "average_count_exclude_padding" : 1,
      "type" : "pool",
      "name" : "input.565",
      "pad_t" : 0,
      "stride_y" : 2,
      "bottom" : "input.563",
      "weights" : {

      },
      "pad_mode" : 0,
      "size_y" : 2,
      "pad_value" : 0
    },
    {
      "pad_r" : 1,
      "fused_relu" : 1,
      "fused_tanh" : 0,
      "debug_info" : "input.569",
      "pad_fill_mode" : 0,
      "pad_b" : 1,
      "pad_l" : 1,
      "top" : "input.571",
      "K" : 64,
      "blob_biases" : 649,
      "name" : "input.569",
      "has_batch_norm" : 0,
      "type" : "convolution",
      "n_groups" : 1,
      "pad_t" : 1,
      "has_biases" : 1,
      "C" : 64,
      "bottom" : "input.565",
      "weights" : {
        "W_U8" : 651,
        "per_ch_qscale" : 655,
        "per_ch_qbias" : 653
      },
      "Nx" : 3,
      "pad_mode" : 0,
      "pad_value" : 0,
      "Ny" : 3,
      "n_parallel" : 1
    },
    {
      "pad_r" : 2,
      "fused_relu" : 1,
      "fused_tanh" : 0,
      "debug_info" : "input.575",
      "pad_fill_mode" : 0,
      "pad_b" : 2,
      "pad_l" : 2,
      "top" : "hx5",
      "K" : 64,
      "blob_biases" : 657,
      "name" : "input.575",
      "has_batch_norm" : 0,
      "type" : "convolution",
      "n_groups" : 1,
      "pad_t" : 2,
      "has_biases" : 1,
      "C" : 64,
      "bottom" : "input.571",
      "weights" : {
        "W_U8" : 659,
        "per_ch_qscale" : 663,
        "per_ch_qbias" : 661
      },
      "Nx" : 3,
      "pad_mode" : 0,
      "dilation_x" : 2,
      "pad_value" : 0,
      "Ny" : 3,
      "n_parallel" : 1,
      "dilation_y" : 2
    },
    {
      "weights" : {

      },
      "debug_info" : "input.577",
      "top" : "input.577",
      "type" : "concat",
      "name" : "input.577",
      "bottom" : "hx5,input.571"
    },
    {
      "pad_r" : 1,
      "fused_relu" : 1,
      "fused_tanh" : 0,
      "debug_info" : "input.581",
      "pad_fill_mode" : 0,
      "pad_b" : 1,
      "pad_l" : 1,
      "top" : "input.583",
      "K" : 128,
      "blob_biases" : 665,
      "name" : "input.581",
      "has_batch_norm" : 0,
      "type" : "convolution",
      "n_groups" : 1,
      "pad_t" : 1,
      "has_biases" : 1,
      "C" : 64,
      "bottom" : "input.577",
      "weights" : {
        "W_U8" : 667,
        "per_ch_qscale" : 671,
        "per_ch_qbias" : 669
      },
      "Nx" : 3,
      "pad_mode" : 0,
      "pad_value" : 0,
      "Ny" : 3,
      "n_parallel" : 1
    },
    {
      "top" : "hx4dup.9",
      "use_fractional_scale_factors" : false,
      "weights" : {

      },
      "fractional_scaling_factor_y" : 1,
      "type" : "upsample",
      "scaling_factor_x" : 2,
      "mode" : 1,
      "align_corners" : 0,
      "bottom" : "input.583",
      "debug_info" : "hx4dup.9",
      "fractional_scaling_factor_x" : 1,
      "is_legacy_mode" : 0,
      "name" : "hx4dup.9",
      "scaling_factor_y" : 2
    },
    {
      "weights" : {

      },
      "debug_info" : "input.585",
      "top" : "input.585",
      "type" : "concat",
      "name" : "input.585",
      "bottom" : "hx4dup.9,input.563"
    },
    {
      "pad_r" : 1,
      "fused_relu" : 1,
      "fused_tanh" : 0,
      "debug_info" : "input.589",
      "pad_fill_mode" : 0,
      "pad_b" : 1,
      "pad_l" : 1,
      "top" : "input.591",
      "K" : 128,
      "blob_biases" : 673,
      "name" : "input.589",
      "has_batch_norm" : 0,
      "type" : "convolution",
      "n_groups" : 1,
      "pad_t" : 1,
      "has_biases" : 1,
      "C" : 64,
      "bottom" : "input.585",
      "weights" : {
        "W_U8" : 675,
        "per_ch_qscale" : 679,
        "per_ch_qbias" : 677
      },
      "Nx" : 3,
      "pad_mode" : 0,
      "pad_value" : 0,
      "Ny" : 3,
      "n_parallel" : 1
    },
    {
      "top" : "hx3dup.11",
      "use_fractional_scale_factors" : false,
      "weights" : {

      },
      "fractional_scaling_factor_y" : 1,
      "type" : "upsample",
      "scaling_factor_x" : 2,
      "mode" : 1,
      "align_corners" : 0,
      "bottom" : "input.591",
      "debug_info" : "hx3dup.11",
      "fractional_scaling_factor_x" : 1,
      "is_legacy_mode" : 0,
      "name" : "hx3dup.11",
      "scaling_factor_y" : 2
    },
    {
      "weights" : {

      },
      "debug_info" : "input.593",
      "top" : "input.593",
      "type" : "concat",
      "name" : "input.593",
      "bottom" : "hx3dup.11,input.555"
    },
    {
      "pad_r" : 1,
      "fused_relu" : 1,
      "fused_tanh" : 0,
      "debug_info" : "input.597",
      "pad_fill_mode" : 0,
      "pad_b" : 1,
      "pad_l" : 1,
      "top" : "input.599",
      "K" : 128,
      "blob_biases" : 681,
      "name" : "input.597",
      "has_batch_norm" : 0,
      "type" : "convolution",
      "n_groups" : 1,
      "pad_t" : 1,
      "has_biases" : 1,
      "C" : 64,
      "bottom" : "input.593",
      "weights" : {
        "W_U8" : 683,
        "per_ch_qscale" : 687,
        "per_ch_qbias" : 685
      },
      "Nx" : 3,
      "pad_mode" : 0,
      "pad_value" : 0,
      "Ny" : 3,
      "n_parallel" : 1
    },
    {
      "top" : "hx2dup.11",
      "use_fractional_scale_factors" : false,
      "weights" : {

      },
      "fractional_scaling_factor_y" : 1,
      "type" : "upsample",
      "scaling_factor_x" : 2,
      "mode" : 1,
      "align_corners" : 0,
      "bottom" : "input.599",
      "debug_info" : "hx2dup.11",
      "fractional_scaling_factor_x" : 1,
      "is_legacy_mode" : 0,
      "name" : "hx2dup.11",
      "scaling_factor_y" : 2
    },
    {
      "weights" : {

      },
      "debug_info" : "input.601",
      "top" : "input.601",
      "type" : "concat",
      "name" : "input.601",
      "bottom" : "hx2dup.11,input.547"
    },
    {
      "pad_r" : 1,
      "fused_relu" : 1,
      "fused_tanh" : 0,
      "debug_info" : "input.605",
      "pad_fill_mode" : 0,
      "pad_b" : 1,
      "pad_l" : 1,
      "top" : "hx1d.17",
      "K" : 128,
      "blob_biases" : 689,
      "name" : "input.605",
      "has_batch_norm" : 0,
      "type" : "convolution",
      "n_groups" : 1,
      "pad_t" : 1,
      "has_biases" : 1,
      "C" : 128,
      "bottom" : "input.601",
      "weights" : {
        "W_U8" : 691,
        "per_ch_qscale" : 695,
        "per_ch_qbias" : 693
      },
      "Nx" : 3,
      "pad_mode" : 0,
      "pad_value" : 0,
      "Ny" : 3,
      "n_parallel" : 1
    },
    {
      "bottom" : "hx1d.17,input.541",
      "alpha" : 1,
      "operation" : 0,
      "weights" : {

      },
      "fused_relu" : 0,
      "debug_info" : "input.607",
      "top" : "input.607",
      "type" : "elementwise",
      "name" : "input.607",
      "beta" : 0
    },
    {
      "top" : "hx3dup.13",
      "use_fractional_scale_factors" : false,
      "weights" : {

      },
      "fractional_scaling_factor_y" : 1,
      "type" : "upsample",
      "scaling_factor_x" : 2,
      "mode" : 1,
      "align_corners" : 0,
      "bottom" : "input.607",
      "debug_info" : "hx3dup.13",
      "fractional_scaling_factor_x" : 1,
      "is_legacy_mode" : 0,
      "name" : "hx3dup.13",
      "scaling_factor_y" : 2
    },
    {
      "weights" : {

      },
      "debug_info" : "input.609",
      "top" : "input.609",
      "type" : "concat",
      "name" : "input.609",
      "bottom" : "hx3dup.13,input.193"
    },
    {
      "pad_r" : 1,
      "fused_relu" : 1,
      "fused_tanh" : 0,
      "debug_info" : "input.613",
      "pad_fill_mode" : 0,
      "pad_b" : 1,
      "pad_l" : 1,
      "top" : "input.615",
      "K" : 256,
      "blob_biases" : 697,
      "name" : "input.613",
      "has_batch_norm" : 0,
      "type" : "convolution",
      "n_groups" : 1,
      "pad_t" : 1,
      "has_biases" : 1,
      "C" : 64,
      "bottom" : "input.609",
      "weights" : {
        "W_U8" : 699,
        "per_ch_qscale" : 703,
        "per_ch_qbias" : 701
      },
      "Nx" : 3,
      "pad_mode" : 0,
      "pad_value" : 0,
      "Ny" : 3,
      "n_parallel" : 1
    },
    {
      "pad_r" : 1,
      "fused_relu" : 1,
      "fused_tanh" : 0,
      "debug_info" : "input.619",
      "pad_fill_mode" : 0,
      "pad_b" : 1,
      "pad_l" : 1,
      "top" : "input.621",
      "K" : 64,
      "blob_biases" : 705,
      "name" : "input.619",
      "has_batch_norm" : 0,
      "type" : "convolution",
      "n_groups" : 1,
      "pad_t" : 1,
      "has_biases" : 1,
      "C" : 32,
      "bottom" : "input.615",
      "weights" : {
        "W_U8" : 707,
        "per_ch_qscale" : 711,
        "per_ch_qbias" : 709
      },
      "Nx" : 3,
      "pad_mode" : 0,
      "pad_value" : 0,
      "Ny" : 3,
      "n_parallel" : 1
    },
    {
      "pad_r" : 0,
      "debug_info" : "input.623",
      "pad_fill_mode" : 0,
      "pad_b" : 0,
      "pad_l" : 0,
      "size_x" : 2,
      "top" : "input.623",
      "top_shape_style" : 2,
      "stride_x" : 2,
      "avg_or_max" : 1,
      "average_count_exclude_padding" : 1,
      "type" : "pool",
      "name" : "input.623",
      "pad_t" : 0,
      "stride_y" : 2,
      "bottom" : "input.621",
      "weights" : {

      },
      "pad_mode" : 0,
      "size_y" : 2,
      "pad_value" : 0
    },
    {
      "pad_r" : 1,
      "fused_relu" : 1,
      "fused_tanh" : 0,
      "debug_info" : "input.627",
      "pad_fill_mode" : 0,
      "pad_b" : 1,
      "pad_l" : 1,
      "top" : "input.629",
      "K" : 32,
      "blob_biases" : 713,
      "name" : "input.627",
      "has_batch_norm" : 0,
      "type" : "convolution",
      "n_groups" : 1,
      "pad_t" : 1,
      "has_biases" : 1,
      "C" : 32,
      "bottom" : "input.623",
      "weights" : {
        "W_U8" : 715,
        "per_ch_qscale" : 719,
        "per_ch_qbias" : 717
      },
      "Nx" : 3,
      "pad_mode" : 0,
      "pad_value" : 0,
      "Ny" : 3,
      "n_parallel" : 1
    },
    {
      "pad_r" : 0,
      "debug_info" : "input.631",
      "pad_fill_mode" : 0,
      "pad_b" : 0,
      "pad_l" : 0,
      "size_x" : 2,
      "top" : "input.631",
      "top_shape_style" : 2,
      "stride_x" : 2,
      "avg_or_max" : 1,
      "average_count_exclude_padding" : 1,
      "type" : "pool",
      "name" : "input.631",
      "pad_t" : 0,
      "stride_y" : 2,
      "bottom" : "input.629",
      "weights" : {

      },
      "pad_mode" : 0,
      "size_y" : 2,
      "pad_value" : 0
    },
    {
      "pad_r" : 1,
      "fused_relu" : 1,
      "fused_tanh" : 0,
      "debug_info" : "input.635",
      "pad_fill_mode" : 0,
      "pad_b" : 1,
      "pad_l" : 1,
      "top" : "input.637",
      "K" : 32,
      "blob_biases" : 721,
      "name" : "input.635",
      "has_batch_norm" : 0,
      "type" : "convolution",
      "n_groups" : 1,
      "pad_t" : 1,
      "has_biases" : 1,
      "C" : 32,
      "bottom" : "input.631",
      "weights" : {
        "W_U8" : 723,
        "per_ch_qscale" : 727,
        "per_ch_qbias" : 725
      },
      "Nx" : 3,
      "pad_mode" : 0,
      "pad_value" : 0,
      "Ny" : 3,
      "n_parallel" : 1
    },
    {
      "pad_r" : 0,
      "debug_info" : "input.639",
      "pad_fill_mode" : 0,
      "pad_b" : 0,
      "pad_l" : 0,
      "size_x" : 2,
      "top" : "input.639",
      "top_shape_style" : 2,
      "stride_x" : 2,
      "avg_or_max" : 1,
      "average_count_exclude_padding" : 1,
      "type" : "pool",
      "name" : "input.639",
      "pad_t" : 0,
      "stride_y" : 2,
      "bottom" : "input.637",
      "weights" : {

      },
      "pad_mode" : 0,
      "size_y" : 2,
      "pad_value" : 0
    },
    {
      "pad_r" : 1,
      "fused_relu" : 1,
      "fused_tanh" : 0,
      "debug_info" : "input.643",
      "pad_fill_mode" : 0,
      "pad_b" : 1,
      "pad_l" : 1,
      "top" : "input.645",
      "K" : 32,
      "blob_biases" : 729,
      "name" : "input.643",
      "has_batch_norm" : 0,
      "type" : "convolution",
      "n_groups" : 1,
      "pad_t" : 1,
      "has_biases" : 1,
      "C" : 32,
      "bottom" : "input.639",
      "weights" : {
        "W_U8" : 731,
        "per_ch_qscale" : 735,
        "per_ch_qbias" : 733
      },
      "Nx" : 3,
      "pad_mode" : 0,
      "pad_value" : 0,
      "Ny" : 3,
      "n_parallel" : 1
    },
    {
      "pad_r" : 0,
      "debug_info" : "input.647",
      "pad_fill_mode" : 0,
      "pad_b" : 0,
      "pad_l" : 0,
      "size_x" : 2,
      "top" : "input.647",
      "top_shape_style" : 2,
      "stride_x" : 2,
      "avg_or_max" : 1,
      "average_count_exclude_padding" : 1,
      "type" : "pool",
      "name" : "input.647",
      "pad_t" : 0,
      "stride_y" : 2,
      "bottom" : "input.645",
      "weights" : {

      },
      "pad_mode" : 0,
      "size_y" : 2,
      "pad_value" : 0
    },
    {
      "pad_r" : 1,
      "fused_relu" : 1,
      "fused_tanh" : 0,
      "debug_info" : "input.651",
      "pad_fill_mode" : 0,
      "pad_b" : 1,
      "pad_l" : 1,
      "top" : "input.653",
      "K" : 32,
      "blob_biases" : 737,
      "name" : "input.651",
      "has_batch_norm" : 0,
      "type" : "convolution",
      "n_groups" : 1,
      "pad_t" : 1,
      "has_biases" : 1,
      "C" : 32,
      "bottom" : "input.647",
      "weights" : {
        "W_U8" : 739,
        "per_ch_qscale" : 743,
        "per_ch_qbias" : 741
      },
      "Nx" : 3,
      "pad_mode" : 0,
      "pad_value" : 0,
      "Ny" : 3,
      "n_parallel" : 1
    },
    {
      "pad_r" : 2,
      "fused_relu" : 1,
      "fused_tanh" : 0,
      "debug_info" : "input.657",
      "pad_fill_mode" : 0,
      "pad_b" : 2,
      "pad_l" : 2,
      "top" : "hx6",
      "K" : 32,
      "blob_biases" : 745,
      "name" : "input.657",
      "has_batch_norm" : 0,
      "type" : "convolution",
      "n_groups" : 1,
      "pad_t" : 2,
      "has_biases" : 1,
      "C" : 32,
      "bottom" : "input.653",
      "weights" : {
        "W_U8" : 747,
        "per_ch_qscale" : 751,
        "per_ch_qbias" : 749
      },
      "Nx" : 3,
      "pad_mode" : 0,
      "dilation_x" : 2,
      "pad_value" : 0,
      "Ny" : 3,
      "n_parallel" : 1,
      "dilation_y" : 2
    },
    {
      "weights" : {

      },
      "debug_info" : "input.659",
      "top" : "input.659",
      "type" : "concat",
      "name" : "input.659",
      "bottom" : "hx6,input.653"
    },
    {
      "pad_r" : 1,
      "fused_relu" : 1,
      "fused_tanh" : 0,
      "debug_info" : "input.663",
      "pad_fill_mode" : 0,
      "pad_b" : 1,
      "pad_l" : 1,
      "top" : "input.665",
      "K" : 64,
      "blob_biases" : 753,
      "name" : "input.663",
      "has_batch_norm" : 0,
      "type" : "convolution",
      "n_groups" : 1,
      "pad_t" : 1,
      "has_biases" : 1,
      "C" : 32,
      "bottom" : "input.659",
      "weights" : {
        "W_U8" : 755,
        "per_ch_qscale" : 759,
        "per_ch_qbias" : 757
      },
      "Nx" : 3,
      "pad_mode" : 0,
      "pad_value" : 0,
      "Ny" : 3,
      "n_parallel" : 1
    },
    {
      "top" : "hx5dup.7",
      "use_fractional_scale_factors" : false,
      "weights" : {

      },
      "fractional_scaling_factor_y" : 1,
      "type" : "upsample",
      "scaling_factor_x" : 2,
      "mode" : 1,
      "align_corners" : 0,
      "bottom" : "input.665",
      "debug_info" : "hx5dup.7",
      "fractional_scaling_factor_x" : 1,
      "is_legacy_mode" : 0,
      "name" : "hx5dup.7",
      "scaling_factor_y" : 2
    },
    {
      "weights" : {

      },
      "debug_info" : "input.667",
      "top" : "input.667",
      "type" : "concat",
      "name" : "input.667",
      "bottom" : "hx5dup.7,input.645"
    },
    {
      "pad_r" : 1,
      "fused_relu" : 1,
      "fused_tanh" : 0,
      "debug_info" : "input.671",
      "pad_fill_mode" : 0,
      "pad_b" : 1,
      "pad_l" : 1,
      "top" : "input.673",
      "K" : 64,
      "blob_biases" : 761,
      "name" : "input.671",
      "has_batch_norm" : 0,
      "type" : "convolution",
      "n_groups" : 1,
      "pad_t" : 1,
      "has_biases" : 1,
      "C" : 32,
      "bottom" : "input.667",
      "weights" : {
        "W_U8" : 763,
        "per_ch_qscale" : 767,
        "per_ch_qbias" : 765
      },
      "Nx" : 3,
      "pad_mode" : 0,
      "pad_value" : 0,
      "Ny" : 3,
      "n_parallel" : 1
    },
    {
      "top" : "hx4dup.11",
      "use_fractional_scale_factors" : false,
      "weights" : {

      },
      "fractional_scaling_factor_y" : 1,
      "type" : "upsample",
      "scaling_factor_x" : 2,
      "mode" : 1,
      "align_corners" : 0,
      "bottom" : "input.673",
      "debug_info" : "hx4dup.11",
      "fractional_scaling_factor_x" : 1,
      "is_legacy_mode" : 0,
      "name" : "hx4dup.11",
      "scaling_factor_y" : 2
    },
    {
      "weights" : {

      },
      "debug_info" : "input.675",
      "top" : "input.675",
      "type" : "concat",
      "name" : "input.675",
      "bottom" : "hx4dup.11,input.637"
    },
    {
      "pad_r" : 1,
      "fused_relu" : 1,
      "fused_tanh" : 0,
      "debug_info" : "input.679",
      "pad_fill_mode" : 0,
      "pad_b" : 1,
      "pad_l" : 1,
      "top" : "input.681",
      "K" : 64,
      "blob_biases" : 769,
      "name" : "input.679",
      "has_batch_norm" : 0,
      "type" : "convolution",
      "n_groups" : 1,
      "pad_t" : 1,
      "has_biases" : 1,
      "C" : 32,
      "bottom" : "input.675",
      "weights" : {
        "W_U8" : 771,
        "per_ch_qscale" : 775,
        "per_ch_qbias" : 773
      },
      "Nx" : 3,
      "pad_mode" : 0,
      "pad_value" : 0,
      "Ny" : 3,
      "n_parallel" : 1
    },
    {
      "top" : "hx3dup.15",
      "use_fractional_scale_factors" : false,
      "weights" : {

      },
      "fractional_scaling_factor_y" : 1,
      "type" : "upsample",
      "scaling_factor_x" : 2,
      "mode" : 1,
      "align_corners" : 0,
      "bottom" : "input.681",
      "debug_info" : "hx3dup.15",
      "fractional_scaling_factor_x" : 1,
      "is_legacy_mode" : 0,
      "name" : "hx3dup.15",
      "scaling_factor_y" : 2
    },
    {
      "weights" : {

      },
      "debug_info" : "input.683",
      "top" : "input.683",
      "type" : "concat",
      "name" : "input.683",
      "bottom" : "hx3dup.15,input.629"
    },
    {
      "pad_r" : 1,
      "fused_relu" : 1,
      "fused_tanh" : 0,
      "debug_info" : "input.687",
      "pad_fill_mode" : 0,
      "pad_b" : 1,
      "pad_l" : 1,
      "top" : "input.689",
      "K" : 64,
      "blob_biases" : 777,
      "name" : "input.687",
      "has_batch_norm" : 0,
      "type" : "convolution",
      "n_groups" : 1,
      "pad_t" : 1,
      "has_biases" : 1,
      "C" : 32,
      "bottom" : "input.683",
      "weights" : {
        "W_U8" : 779,
        "per_ch_qscale" : 783,
        "per_ch_qbias" : 781
      },
      "Nx" : 3,
      "pad_mode" : 0,
      "pad_value" : 0,
      "Ny" : 3,
      "n_parallel" : 1
    },
    {
      "top" : "hx2dup.13",
      "use_fractional_scale_factors" : false,
      "weights" : {

      },
      "fractional_scaling_factor_y" : 1,
      "type" : "upsample",
      "scaling_factor_x" : 2,
      "mode" : 1,
      "align_corners" : 0,
      "bottom" : "input.689",
      "debug_info" : "hx2dup.13",
      "fractional_scaling_factor_x" : 1,
      "is_legacy_mode" : 0,
      "name" : "hx2dup.13",
      "scaling_factor_y" : 2
    },
    {
      "weights" : {

      },
      "debug_info" : "input.691",
      "top" : "input.691",
      "type" : "concat",
      "name" : "input.691",
      "bottom" : "hx2dup.13,input.621"
    },
    {
      "pad_r" : 1,
      "fused_relu" : 1,
      "fused_tanh" : 0,
      "debug_info" : "input.695",
      "pad_fill_mode" : 0,
      "pad_b" : 1,
      "pad_l" : 1,
      "top" : "hx1d.19",
      "K" : 64,
      "blob_biases" : 785,
      "name" : "input.695",
      "has_batch_norm" : 0,
      "type" : "convolution",
      "n_groups" : 1,
      "pad_t" : 1,
      "has_biases" : 1,
      "C" : 64,
      "bottom" : "input.691",
      "weights" : {
        "W_U8" : 787,
        "per_ch_qscale" : 791,
        "per_ch_qbias" : 789
      },
      "Nx" : 3,
      "pad_mode" : 0,
      "pad_value" : 0,
      "Ny" : 3,
      "n_parallel" : 1
    },
    {
      "bottom" : "hx1d.19,input.615",
      "alpha" : 1,
      "operation" : 0,
      "weights" : {

      },
      "fused_relu" : 0,
      "debug_info" : "input.697",
      "top" : "input.697",
      "type" : "elementwise",
      "name" : "input.697",
      "beta" : 0
    },
    {
      "top" : "hx2dup.15",
      "use_fractional_scale_factors" : false,
      "weights" : {

      },
      "fractional_scaling_factor_y" : 1,
      "type" : "upsample",
      "scaling_factor_x" : 2,
      "mode" : 1,
      "align_corners" : 0,
      "bottom" : "input.697",
      "debug_info" : "hx2dup.15",
      "fractional_scaling_factor_x" : 1,
      "is_legacy_mode" : 0,
      "name" : "hx2dup.15",
      "scaling_factor_y" : 2
    },
    {
      "weights" : {

      },
      "debug_info" : "x",
      "top" : "x",
      "type" : "concat",
      "name" : "x",
      "bottom" : "hx2dup.15,input.103"
    },
    {
      "pad_r" : 1,
      "fused_relu" : 1,
      "fused_tanh" : 0,
      "debug_info" : "input.701",
      "pad_fill_mode" : 0,
      "pad_b" : 1,
      "pad_l" : 1,
      "top" : "input.703",
      "K" : 128,
      "blob_biases" : 793,
      "name" : "input.701",
      "has_batch_norm" : 0,
      "type" : "convolution",
      "n_groups" : 1,
      "pad_t" : 1,
      "has_biases" : 1,
      "C" : 64,
      "bottom" : "x",
      "weights" : {
        "W_U8" : 795,
        "per_ch_qscale" : 799,
        "per_ch_qbias" : 797
      },
      "Nx" : 3,
      "pad_mode" : 0,
      "pad_value" : 0,
      "Ny" : 3,
      "n_parallel" : 1
    },
    {
      "pad_r" : 1,
      "fused_relu" : 1,
      "fused_tanh" : 0,
      "debug_info" : "input.707",
      "pad_fill_mode" : 0,
      "pad_b" : 1,
      "pad_l" : 1,
      "top" : "input.709",
      "K" : 64,
      "blob_biases" : 801,
      "name" : "input.707",
      "has_batch_norm" : 0,
      "type" : "convolution",
      "n_groups" : 1,
      "pad_t" : 1,
      "has_biases" : 1,
      "C" : 16,
      "bottom" : "input.703",
      "weights" : {
        "W_U8" : 803,
        "per_ch_qscale" : 807,
        "per_ch_qbias" : 805
      },
      "Nx" : 3,
      "pad_mode" : 0,
      "pad_value" : 0,
      "Ny" : 3,
      "n_parallel" : 1
    },
    {
      "pad_r" : 0,
      "debug_info" : "input.711",
      "pad_fill_mode" : 0,
      "pad_b" : 0,
      "pad_l" : 0,
      "size_x" : 2,
      "top" : "input.711",
      "top_shape_style" : 2,
      "stride_x" : 2,
      "avg_or_max" : 1,
      "average_count_exclude_padding" : 1,
      "type" : "pool",
      "name" : "input.711",
      "pad_t" : 0,
      "stride_y" : 2,
      "bottom" : "input.709",
      "weights" : {

      },
      "pad_mode" : 0,
      "size_y" : 2,
      "pad_value" : 0
    },
    {
      "pad_r" : 1,
      "fused_relu" : 1,
      "fused_tanh" : 0,
      "debug_info" : "input.715",
      "pad_fill_mode" : 0,
      "pad_b" : 1,
      "pad_l" : 1,
      "top" : "input.717",
      "K" : 16,
      "blob_biases" : 809,
      "name" : "input.715",
      "has_batch_norm" : 0,
      "type" : "convolution",
      "n_groups" : 1,
      "pad_t" : 1,
      "has_biases" : 1,
      "C" : 16,
      "bottom" : "input.711",
      "weights" : {
        "W_U8" : 811,
        "per_ch_qscale" : 815,
        "per_ch_qbias" : 813
      },
      "Nx" : 3,
      "pad_mode" : 0,
      "pad_value" : 0,
      "Ny" : 3,
      "n_parallel" : 1
    },
    {
      "pad_r" : 0,
      "debug_info" : "input.719",
      "pad_fill_mode" : 0,
      "pad_b" : 0,
      "pad_l" : 0,
      "size_x" : 2,
      "top" : "input.719",
      "top_shape_style" : 2,
      "stride_x" : 2,
      "avg_or_max" : 1,
      "average_count_exclude_padding" : 1,
      "type" : "pool",
      "name" : "input.719",
      "pad_t" : 0,
      "stride_y" : 2,
      "bottom" : "input.717",
      "weights" : {

      },
      "pad_mode" : 0,
      "size_y" : 2,
      "pad_value" : 0
    },
    {
      "pad_r" : 1,
      "fused_relu" : 1,
      "fused_tanh" : 0,
      "debug_info" : "input.723",
      "pad_fill_mode" : 0,
      "pad_b" : 1,
      "pad_l" : 1,
      "top" : "input.725",
      "K" : 16,
      "blob_biases" : 817,
      "name" : "input.723",
      "has_batch_norm" : 0,
      "type" : "convolution",
      "n_groups" : 1,
      "pad_t" : 1,
      "has_biases" : 1,
      "C" : 16,
      "bottom" : "input.719",
      "weights" : {
        "W_U8" : 819,
        "per_ch_qscale" : 823,
        "per_ch_qbias" : 821
      },
      "Nx" : 3,
      "pad_mode" : 0,
      "pad_value" : 0,
      "Ny" : 3,
      "n_parallel" : 1
    },
    {
      "pad_r" : 0,
      "debug_info" : "input.727",
      "pad_fill_mode" : 0,
      "pad_b" : 0,
      "pad_l" : 0,
      "size_x" : 2,
      "top" : "input.727",
      "top_shape_style" : 2,
      "stride_x" : 2,
      "avg_or_max" : 1,
      "average_count_exclude_padding" : 1,
      "type" : "pool",
      "name" : "input.727",
      "pad_t" : 0,
      "stride_y" : 2,
      "bottom" : "input.725",
      "weights" : {

      },
      "pad_mode" : 0,
      "size_y" : 2,
      "pad_value" : 0
    },
    {
      "pad_r" : 1,
      "fused_relu" : 1,
      "fused_tanh" : 0,
      "debug_info" : "input.731",
      "pad_fill_mode" : 0,
      "pad_b" : 1,
      "pad_l" : 1,
      "top" : "input.733",
      "K" : 16,
      "blob_biases" : 825,
      "name" : "input.731",
      "has_batch_norm" : 0,
      "type" : "convolution",
      "n_groups" : 1,
      "pad_t" : 1,
      "has_biases" : 1,
      "C" : 16,
      "bottom" : "input.727",
      "weights" : {
        "W_U8" : 827,
        "per_ch_qscale" : 831,
        "per_ch_qbias" : 829
      },
      "Nx" : 3,
      "pad_mode" : 0,
      "pad_value" : 0,
      "Ny" : 3,
      "n_parallel" : 1
    },
    {
      "pad_r" : 0,
      "debug_info" : "input.735",
      "pad_fill_mode" : 0,
      "pad_b" : 0,
      "pad_l" : 0,
      "size_x" : 2,
      "top" : "input.735",
      "top_shape_style" : 2,
      "stride_x" : 2,
      "avg_or_max" : 1,
      "average_count_exclude_padding" : 1,
      "type" : "pool",
      "name" : "input.735",
      "pad_t" : 0,
      "stride_y" : 2,
      "bottom" : "input.733",
      "weights" : {

      },
      "pad_mode" : 0,
      "size_y" : 2,
      "pad_value" : 0
    },
    {
      "pad_r" : 1,
      "fused_relu" : 1,
      "fused_tanh" : 0,
      "debug_info" : "input.739",
      "pad_fill_mode" : 0,
      "pad_b" : 1,
      "pad_l" : 1,
      "top" : "input.741",
      "K" : 16,
      "blob_biases" : 833,
      "name" : "input.739",
      "has_batch_norm" : 0,
      "type" : "convolution",
      "n_groups" : 1,
      "pad_t" : 1,
      "has_biases" : 1,
      "C" : 16,
      "bottom" : "input.735",
      "weights" : {
        "W_U8" : 835,
        "per_ch_qscale" : 839,
        "per_ch_qbias" : 837
      },
      "Nx" : 3,
      "pad_mode" : 0,
      "pad_value" : 0,
      "Ny" : 3,
      "n_parallel" : 1
    },
    {
      "pad_r" : 0,
      "debug_info" : "input.743",
      "pad_fill_mode" : 0,
      "pad_b" : 0,
      "pad_l" : 0,
      "size_x" : 2,
      "top" : "input.743",
      "top_shape_style" : 2,
      "stride_x" : 2,
      "avg_or_max" : 1,
      "average_count_exclude_padding" : 1,
      "type" : "pool",
      "name" : "input.743",
      "pad_t" : 0,
      "stride_y" : 2,
      "bottom" : "input.741",
      "weights" : {

      },
      "pad_mode" : 0,
      "size_y" : 2,
      "pad_value" : 0
    },
    {
      "pad_r" : 1,
      "fused_relu" : 1,
      "fused_tanh" : 0,
      "debug_info" : "input.747",
      "pad_fill_mode" : 0,
      "pad_b" : 1,
      "pad_l" : 1,
      "top" : "input.749",
      "K" : 16,
      "blob_biases" : 841,
      "name" : "input.747",
      "has_batch_norm" : 0,
      "type" : "convolution",
      "n_groups" : 1,
      "pad_t" : 1,
      "has_biases" : 1,
      "C" : 16,
      "bottom" : "input.743",
      "weights" : {
        "W_U8" : 843,
        "per_ch_qscale" : 847,
        "per_ch_qbias" : 845
      },
      "Nx" : 3,
      "pad_mode" : 0,
      "pad_value" : 0,
      "Ny" : 3,
      "n_parallel" : 1
    },
    {
      "pad_r" : 2,
      "fused_relu" : 1,
      "fused_tanh" : 0,
      "debug_info" : "input.753",
      "pad_fill_mode" : 0,
      "pad_b" : 2,
      "pad_l" : 2,
      "top" : "hx7",
      "K" : 16,
      "blob_biases" : 849,
      "name" : "input.753",
      "has_batch_norm" : 0,
      "type" : "convolution",
      "n_groups" : 1,
      "pad_t" : 2,
      "has_biases" : 1,
      "C" : 16,
      "bottom" : "input.749",
      "weights" : {
        "W_U8" : 851,
        "per_ch_qscale" : 855,
        "per_ch_qbias" : 853
      },
      "Nx" : 3,
      "pad_mode" : 0,
      "dilation_x" : 2,
      "pad_value" : 0,
      "Ny" : 3,
      "n_parallel" : 1,
      "dilation_y" : 2
    },
    {
      "weights" : {

      },
      "debug_info" : "input.755",
      "top" : "input.755",
      "type" : "concat",
      "name" : "input.755",
      "bottom" : "hx7,input.749"
    },
    {
      "pad_r" : 1,
      "fused_relu" : 1,
      "fused_tanh" : 0,
      "debug_info" : "input.759",
      "pad_fill_mode" : 0,
      "pad_b" : 1,
      "pad_l" : 1,
      "top" : "input.761",
      "K" : 32,
      "blob_biases" : 857,
      "name" : "input.759",
      "has_batch_norm" : 0,
      "type" : "convolution",
      "n_groups" : 1,
      "pad_t" : 1,
      "has_biases" : 1,
      "C" : 16,
      "bottom" : "input.755",
      "weights" : {
        "W_U8" : 859,
        "per_ch_qscale" : 863,
        "per_ch_qbias" : 861
      },
      "Nx" : 3,
      "pad_mode" : 0,
      "pad_value" : 0,
      "Ny" : 3,
      "n_parallel" : 1
    },
    {
      "top" : "hx6dup",
      "use_fractional_scale_factors" : false,
      "weights" : {

      },
      "fractional_scaling_factor_y" : 1,
      "type" : "upsample",
      "scaling_factor_x" : 2,
      "mode" : 1,
      "align_corners" : 0,
      "bottom" : "input.761",
      "debug_info" : "hx6dup",
      "fractional_scaling_factor_x" : 1,
      "is_legacy_mode" : 0,
      "name" : "hx6dup",
      "scaling_factor_y" : 2
    },
    {
      "weights" : {

      },
      "debug_info" : "input.763",
      "top" : "input.763",
      "type" : "concat",
      "name" : "input.763",
      "bottom" : "hx6dup,input.741"
    },
    {
      "pad_r" : 1,
      "fused_relu" : 1,
      "fused_tanh" : 0,
      "debug_info" : "input.767",
      "pad_fill_mode" : 0,
      "pad_b" : 1,
      "pad_l" : 1,
      "top" : "input.769",
      "K" : 32,
      "blob_biases" : 865,
      "name" : "input.767",
      "has_batch_norm" : 0,
      "type" : "convolution",
      "n_groups" : 1,
      "pad_t" : 1,
      "has_biases" : 1,
      "C" : 16,
      "bottom" : "input.763",
      "weights" : {
        "W_U8" : 867,
        "per_ch_qscale" : 871,
        "per_ch_qbias" : 869
      },
      "Nx" : 3,
      "pad_mode" : 0,
      "pad_value" : 0,
      "Ny" : 3,
      "n_parallel" : 1
    },
    {
      "top" : "hx5dup",
      "use_fractional_scale_factors" : false,
      "weights" : {

      },
      "fractional_scaling_factor_y" : 1,
      "type" : "upsample",
      "scaling_factor_x" : 2,
      "mode" : 1,
      "align_corners" : 0,
      "bottom" : "input.769",
      "debug_info" : "hx5dup",
      "fractional_scaling_factor_x" : 1,
      "is_legacy_mode" : 0,
      "name" : "hx5dup",
      "scaling_factor_y" : 2
    },
    {
      "weights" : {

      },
      "debug_info" : "input.771",
      "top" : "input.771",
      "type" : "concat",
      "name" : "input.771",
      "bottom" : "hx5dup,input.733"
    },
    {
      "pad_r" : 1,
      "fused_relu" : 1,
      "fused_tanh" : 0,
      "debug_info" : "input.775",
      "pad_fill_mode" : 0,
      "pad_b" : 1,
      "pad_l" : 1,
      "top" : "input.777",
      "K" : 32,
      "blob_biases" : 873,
      "name" : "input.775",
      "has_batch_norm" : 0,
      "type" : "convolution",
      "n_groups" : 1,
      "pad_t" : 1,
      "has_biases" : 1,
      "C" : 16,
      "bottom" : "input.771",
      "weights" : {
        "W_U8" : 875,
        "per_ch_qscale" : 879,
        "per_ch_qbias" : 877
      },
      "Nx" : 3,
      "pad_mode" : 0,
      "pad_value" : 0,
      "Ny" : 3,
      "n_parallel" : 1
    },
    {
      "top" : "hx4dup",
      "use_fractional_scale_factors" : false,
      "weights" : {

      },
      "fractional_scaling_factor_y" : 1,
      "type" : "upsample",
      "scaling_factor_x" : 2,
      "mode" : 1,
      "align_corners" : 0,
      "bottom" : "input.777",
      "debug_info" : "hx4dup",
      "fractional_scaling_factor_x" : 1,
      "is_legacy_mode" : 0,
      "name" : "hx4dup",
      "scaling_factor_y" : 2
    },
    {
      "weights" : {

      },
      "debug_info" : "input.779",
      "top" : "input.779",
      "type" : "concat",
      "name" : "input.779",
      "bottom" : "hx4dup,input.725"
    },
    {
      "pad_r" : 1,
      "fused_relu" : 1,
      "fused_tanh" : 0,
      "debug_info" : "input.783",
      "pad_fill_mode" : 0,
      "pad_b" : 1,
      "pad_l" : 1,
      "top" : "input.785",
      "K" : 32,
      "blob_biases" : 881,
      "name" : "input.783",
      "has_batch_norm" : 0,
      "type" : "convolution",
      "n_groups" : 1,
      "pad_t" : 1,
      "has_biases" : 1,
      "C" : 16,
      "bottom" : "input.779",
      "weights" : {
        "W_U8" : 883,
        "per_ch_qscale" : 887,
        "per_ch_qbias" : 885
      },
      "Nx" : 3,
      "pad_mode" : 0,
      "pad_value" : 0,
      "Ny" : 3,
      "n_parallel" : 1
    },
    {
      "top" : "hx3dup",
      "use_fractional_scale_factors" : false,
      "weights" : {

      },
      "fractional_scaling_factor_y" : 1,
      "type" : "upsample",
      "scaling_factor_x" : 2,
      "mode" : 1,
      "align_corners" : 0,
      "bottom" : "input.785",
      "debug_info" : "hx3dup",
      "fractional_scaling_factor_x" : 1,
      "is_legacy_mode" : 0,
      "name" : "hx3dup",
      "scaling_factor_y" : 2
    },
    {
      "weights" : {

      },
      "debug_info" : "input.787",
      "top" : "input.787",
      "type" : "concat",
      "name" : "input.787",
      "bottom" : "hx3dup,input.717"
    },
    {
      "pad_r" : 1,
      "fused_relu" : 1,
      "fused_tanh" : 0,
      "debug_info" : "input.791",
      "pad_fill_mode" : 0,
      "pad_b" : 1,
      "pad_l" : 1,
      "top" : "input.793",
      "K" : 32,
      "blob_biases" : 889,
      "name" : "input.791",
      "has_batch_norm" : 0,
      "type" : "convolution",
      "n_groups" : 1,
      "pad_t" : 1,
      "has_biases" : 1,
      "C" : 16,
      "bottom" : "input.787",
      "weights" : {
        "W_U8" : 891,
        "per_ch_qscale" : 895,
        "per_ch_qbias" : 893
      },
      "Nx" : 3,
      "pad_mode" : 0,
      "pad_value" : 0,
      "Ny" : 3,
      "n_parallel" : 1
    },
    {
      "top" : "hx2dup",
      "use_fractional_scale_factors" : false,
      "weights" : {

      },
      "fractional_scaling_factor_y" : 1,
      "type" : "upsample",
      "scaling_factor_x" : 2,
      "mode" : 1,
      "align_corners" : 0,
      "bottom" : "input.793",
      "debug_info" : "hx2dup",
      "fractional_scaling_factor_x" : 1,
      "is_legacy_mode" : 0,
      "name" : "hx2dup",
      "scaling_factor_y" : 2
    },
    {
      "weights" : {

      },
      "debug_info" : "input.795",
      "top" : "input.795",
      "type" : "concat",
      "name" : "input.795",
      "bottom" : "hx2dup,input.709"
    },
    {
      "pad_r" : 1,
      "fused_relu" : 1,
      "fused_tanh" : 0,
      "debug_info" : "input.799",
      "pad_fill_mode" : 0,
      "pad_b" : 1,
      "pad_l" : 1,
      "top" : "hx1d",
      "K" : 32,
      "blob_biases" : 897,
      "name" : "input.799",
      "has_batch_norm" : 0,
      "type" : "convolution",
      "n_groups" : 1,
      "pad_t" : 1,
      "has_biases" : 1,
      "C" : 64,
      "bottom" : "input.795",
      "weights" : {
        "W_U8" : 899,
        "per_ch_qscale" : 903,
        "per_ch_qbias" : 901
      },
      "Nx" : 3,
      "pad_mode" : 0,
      "pad_value" : 0,
      "Ny" : 3,
      "n_parallel" : 1
    },
    {
      "bottom" : "hx1d,input.703",
      "alpha" : 1,
      "operation" : 0,
      "weights" : {

      },
      "fused_relu" : 0,
      "debug_info" : "input.801",
      "top" : "input.801",
      "type" : "elementwise",
      "name" : "input.801",
      "beta" : 0
    },
    {
      "pad_r" : 1,
      "fused_relu" : 0,
      "fused_tanh" : 0,
      "debug_info" : "input.803",
      "pad_fill_mode" : 0,
      "pad_b" : 1,
      "pad_l" : 1,
      "top" : "input.803",
      "K" : 64,
      "blob_biases" : 905,
      "name" : "input.803",
      "has_batch_norm" : 0,
      "type" : "convolution",
      "n_groups" : 1,
      "pad_t" : 1,
      "has_biases" : 1,
      "C" : 1,
      "bottom" : "input.801",
      "weights" : {
        "W_U8" : 907,
        "per_ch_qscale" : 911,
        "per_ch_qbias" : 909
      },
      "Nx" : 3,
      "pad_mode" : 0,
      "pad_value" : 0,
      "Ny" : 3,
      "n_parallel" : 1
    },
    {
      "top" : "input.815",
      "use_fractional_scale_factors" : false,
      "weights" : {

      },
      "fractional_scaling_factor_y" : 1,
      "type" : "upsample",
      "scaling_factor_x" : 2,
      "mode" : 1,
      "align_corners" : 0,
      "bottom" : "input.803",
      "debug_info" : "input.815",
      "fractional_scaling_factor_x" : 1,
      "is_legacy_mode" : 0,
      "name" : "input.815",
      "scaling_factor_y" : 2
    },
    {
      "bottom" : "input.815",
      "weights" : {

      },
      "mode" : 3,
      "debug_info" : "result.1",
      "top" : "result.1",
      "type" : "activation",
      "name" : "result.1"
    },
    {
      "axis_mode" : 31,
      "bottom" : "result.1",
      "weights" : {

      },
      "mode" : 9,
      "debug_info" : "ma",
      "use_version" : 1,
      "top" : "ma_presqueeze",
      "type" : "reduce",
      "name" : "ma_presqueeze"
    },
    {
      "size_of_axes" : 0,
      "bottom" : "ma_presqueeze",
      "weights" : {

      },
      "nd_axis" : 0,
      "debug_info" : "ma",
      "version" : 1,
      "top" : "ma",
      "type" : "squeeze",
      "name" : "ma",
      "squeeze_all" : true
    },
    {
      "axis_mode" : 31,
      "bottom" : "result.1",
      "weights" : {

      },
      "mode" : 10,
      "debug_info" : "mi",
      "use_version" : 1,
      "top" : "mi_presqueeze",
      "type" : "reduce",
      "name" : "mi_presqueeze"
    },
    {
      "size_of_axes" : 0,
      "bottom" : "mi_presqueeze",
      "weights" : {

      },
      "nd_axis" : 0,
      "debug_info" : "mi",
      "version" : 1,
      "top" : "mi",
      "type" : "squeeze",
      "name" : "mi",
      "squeeze_all" : true
    },
    {
      "alpha" : -1,
      "bottom" : "mi",
      "weights" : {

      },
      "mode" : 6,
      "debug_info" : "_neg_y_2249",
      "top" : "_neg_y_2249",
      "type" : "activation",
      "name" : "_neg_y_2249",
      "beta" : 0
    },
    {
      "bottom" : "result.1,_neg_y_2249",
      "alpha" : 1,
      "operation" : 0,
      "weights" : {

      },
      "fused_relu" : 0,
      "debug_info" : "2249",
      "top" : "2249",
      "type" : "elementwise",
      "name" : "2249",
      "beta" : 0
    },
    {
      "alpha" : -1,
      "bottom" : "mi",
      "weights" : {

      },
      "mode" : 6,
      "debug_info" : "_neg_y_2251",
      "top" : "_neg_y_2251",
      "type" : "activation",
      "name" : "_neg_y_2251",
      "beta" : 0
    },
    {
      "bottom" : "_neg_y_2251,ma",
      "alpha" : 1,
      "operation" : 0,
      "weights" : {

      },
      "fused_relu" : 0,
      "debug_info" : "2251",
      "top" : "2251",
      "type" : "elementwise",
      "name" : "2251",
      "beta" : 0
    },
    {
      "bottom" : "2249,2251",
      "alpha" : 1,
      "operation" : 102,
      "weights" : {

      },
      "fused_relu" : 0,
      "debug_info" : "result",
      "nd_mode" : true,
      "top" : "result",
      "type" : "elementwise",
      "name" : "result",
      "beta" : 0
    },
    {
      "bottom" : "result",
      "alpha" : 255,
      "operation" : 1,
      "beta" : 0,
      "weights" : {

      },
      "fused_relu" : 0,
      "debug_info" : "output",
      "top" : "output",
      "type" : "elementwise",
      "name" : "output",
      "attributes" : {
        "is_output" : 1
      }
    }
  ],
  "transform_params" : {
    "image" : {
      "bias_a" : 0,
      "bias_g" : -0.5,
      "bias_r" : -0.5,
      "bias_b" : -0.5,
      "center_mean" : 0,
      "is_network_bgr" : 0,
      "scale" : 0.0039215688593685627
    }
  },
  "storage" : "model.espresso.weights",
  "metadata_in_weights" : [

  ],
  "properties" : {

  },
  "analyses" : {

  },
  "format_version" : 200
}